…
I0102 22:09:34.127495 13165 net.cpp:257] The NetState phase (0) differed from the phase (1) specified by a rule in layer data
I0102 22:09:34.127589 13165 net.cpp:257] The NetState phase (0) differed from the phase (1) specified by a rule in layer accuracy
I0102 22:09:34.127835 13165 net.cpp:42] Initializing net from parameters: 
name: "AlexNet"
state {
  phase: TRAIN
}
layer {
  name: "data"
  type: "Data"
  top: "data"
  top: "label"
  include {
    phase: TRAIN
  }
  transform_param {
    mirror: true
    crop_size: 227
    mean_file: "data/imagenet/imagenet_mean.binaryproto"
  }
  data_param {
    source: "data/leveldb/train_leveldb"
    batch_size: 64
  }
}
layer {
  name: "conv1"
  type: "Convolution"
  bottom: "data"
  top: "conv1"
  param {
    lr_mult: 0
    decay_mult: 1
  }
  param {
    lr_mult: 0
    decay_mult: 0
  }
  convolution_param {
    num_output: 96
    kernel_size: 11
    stride: 4
    weight_filler {
      type: "gaussian"
      std: 0.01
    }
    bias_filler {
      type: "constant"
      value: 0
    }
  }
}
layer {
  name: "relu1"
  type: "ReLU"
  bottom: "conv1"
  top: "conv1"
}
layer {
  name: "norm1"
  type: "LRN"
  bottom: "conv1"
  top: "norm1"
  lrn_param {
    local_size: 5
    alpha: 0.0001
    beta: 0.75
  }
}
layer {
  name: "pool1"
  type: "Pooling"
  bottom: "norm1"
  top: "pool1"
  pooling_param {
    pool: MAX
    kernel_size: 3
    stride: 2
  }
}
layer {
  name: "conv2"
  type: "Convolution"
  bottom: "pool1"
  top: "conv2"
  param {
    lr_mult: 0
    decay_mult: 1
  }
  param {
    lr_mult: 0
    decay_mult: 0
  }
  convolution_param {
    num_output: 256
    pad: 2
    kernel_size: 5
    group: 2
    weight_filler {
      type: "gaussian"
      std: 0.01
    }
    bias_filler {
      type: "constant"
      value: 0.1
    }
  }
}
layer {
  name: "relu2"
  type: "ReLU"
  bottom: "conv2"
  top: "conv2"
}
layer {
  name: "norm2"
  type: "LRN"
  bottom: "conv2"
  top: "norm2"
  lrn_param {
    local_size: 5
    alpha: 0.0001
    beta: 0.75
  }
}
layer {
  name: "pool2"
  type: "Pooling"
  bottom: "norm2"
  top: "pool2"
  pooling_param {
    pool: MAX
    kernel_size: 3
    stride: 2
  }
}
layer {
  name: "conv3"
  type: "Convolution"
  bottom: "pool2"
  top: "conv3"
  param {
    lr_mult: 0
    decay_mult: 1
  }
  param {
    lr_mult: 0
    decay_mult: 0
  }
  convolution_param {
    num_output: 384
    pad: 1
    kernel_size: 3
    weight_filler {
      type: "gaussian"
      std: 0.01
    }
    bias_filler {
      type: "constant"
      value: 0
    }
  }
}
layer {
  name: "relu3"
  type: "ReLU"
  bottom: "conv3"
  top: "conv3"
}
layer {
  name: "conv4"
  type: "Convolution"
  bottom: "conv3"
  top: "conv4"
  param {
    lr_mult: 0
    decay_mult: 1
  }
  param {
    lr_mult: 0
    decay_mult: 0
  }
  convolution_param {
    num_output: 384
    pad: 1
    kernel_size: 3
    group: 2
    weight_filler {
      type: "gaussian"
      std: 0.01
    }
    bias_filler {
      type: "constant"
      value: 0.1
    }
  }
}
layer {
  name: "relu4"
  type: "ReLU"
  bottom: "conv4"
  top: "conv4"
}
layer {
  name: "conv5"
  type: "Convolution"
  bottom: "conv4"
  top: "conv5"
  param {
    lr_mult: 0
    decay_mult: 1
  }
  param {
    lr_mult: 0
    decay_mult: 0
  }
  convolution_param {
    num_output: 256
    pad: 1
    kernel_size: 3
    group: 2
    weight_filler {
      type: "gaussian"
      std: 0.01
    }
    bias_filler {
      type: "constant"
      value: 0.1
    }
  }
}
layer {
  name: "relu5"
  type: "ReLU"
  bottom: "conv5"
  top: "conv5"
}
layer {
  name: "pool5"
  type: "Pooling"
  bottom: "conv5"
  top: "pool5"
  pooling_param {
    pool: MAX
    kernel_size: 3
    stride: 2
  }
}
layer {
  name: "fc6"
  type: "InnerProduct"
  bottom: "pool5"
  top: "fc6"
  param {
    lr_mult: 0
    decay_mult: 1
  }
  param {
    lr_mult: 0
    decay_mult: 0
  }
  inner_product_param {
    num_output: 4096
    weight_filler {
      type: "gaussian"
      std: 0.005
    }
    bias_filler {
      type: "constant"
      value: 0.1
    }
  }
}
layer {
  name: "relu6"
  type: "ReLU"
  bottom: "fc6"
  top: "fc6"
}
layer {
  name: "drop6"
  type: "Dropout"
  bottom: "fc6"
  top: "fc6"
  dropout_param {
    dropout_ratio: 0.5
  }
}
layer {
  name: "fc7"
  type: "InnerProduct"
  bottom: "fc6"
  top: "fc7"
  param {
    lr_mult: 1
    decay_mult: 1
  }
  param {
    lr_mult: 2
    decay_mult: 0
  }
  inner_product_param {
    num_output: 4096
    weight_filler {
      type: "gaussian"
      std: 0.005
    }
    bias_filler {
      type: "constant"
      value: 0.1
    }
  }
}
layer {
  name: "relu7"
  type: "ReLU"
  bottom: "fc7"
  top: "fc7"
}
layer {
  name: "drop7"
  type: "Dropout"
  bottom: "fc7"
  top: "fc7"
  dropout_param {
    dropout_ratio: 0.5
  }
}
layer {
  name: "fc8_cloudless"
  type: "InnerProduct"
  bottom: "fc7"
  top: "fc8_cloudless"
  param {
    lr_mult: 1
    decay_mult: 1
  }
  param {
    lr_mult: 2
    decay_mult: 0
  }
  inner_product_param {
    num_output: 2
    weight_filler {
      type: "gaussian"
      std: 0.01
    }
    bias_filler {
      type: "constant"
      value: 0
    }
  }
}
layer {
  name: "accuracy"
  type: "Accuracy"
  bottom: "fc8_cloudless"
  bottom: "label"
  top: "accuracy"
  include {
    phase: TRAIN
  }
}
layer {
  name: "loss"
  type: "SoftmaxWithLoss"
  bottom: "fc8_cloudless"
  bottom: "label"
  top: "loss"
}
I0102 22:09:34.128052 13165 layer_factory.hpp:74] Creating layer data
I0102 22:09:34.129412 13165 net.cpp:84] Creating Layer data
I0102 22:09:34.129432 13165 net.cpp:338] data -> data
I0102 22:09:34.129489 13165 net.cpp:338] data -> label
I0102 22:09:34.129506 13165 net.cpp:113] Setting up data
I0102 22:10:22.063650 13165 db.cpp:20] Opened leveldb data/leveldb/train_leveldb
I0102 22:10:22.066056 13165 data_layer.cpp:67] output data size: 64,3,227,227
I0102 22:10:22.066089 13165 data_transformer.cpp:22] Loading mean file from: data/imagenet/imagenet_mean.binaryproto
I0102 22:10:22.088209 13165 net.cpp:120] Top shape: 64 3 227 227 (9893568)
I0102 22:10:22.088239 13165 net.cpp:120] Top shape: 64 (64)
I0102 22:10:22.088254 13165 layer_factory.hpp:74] Creating layer label_data_1_split
I0102 22:10:22.088277 13165 net.cpp:84] Creating Layer label_data_1_split
I0102 22:10:22.088285 13165 net.cpp:380] label_data_1_split <- label
I0102 22:10:22.088304 13165 net.cpp:338] label_data_1_split -> label_data_1_split_0
I0102 22:10:22.088320 13165 net.cpp:338] label_data_1_split -> label_data_1_split_1
I0102 22:10:22.088330 13165 net.cpp:113] Setting up label_data_1_split
I0102 22:10:22.090173 13165 net.cpp:120] Top shape: 64 (64)
I0102 22:10:22.090199 13165 net.cpp:120] Top shape: 64 (64)
I0102 22:10:22.090206 13165 layer_factory.hpp:74] Creating layer conv1
I0102 22:10:22.090235 13165 net.cpp:84] Creating Layer conv1
I0102 22:10:22.090241 13165 net.cpp:380] conv1 <- data
I0102 22:10:22.090250 13165 net.cpp:338] conv1 -> conv1
I0102 22:10:22.090265 13165 net.cpp:113] Setting up conv1
I0102 22:10:22.315770 13165 net.cpp:120] Top shape: 64 96 55 55 (18585600)
I0102 22:10:22.315850 13165 layer_factory.hpp:74] Creating layer relu1
I0102 22:10:22.315888 13165 net.cpp:84] Creating Layer relu1
I0102 22:10:22.315917 13165 net.cpp:380] relu1 <- conv1
I0102 22:10:22.315942 13165 net.cpp:327] relu1 -> conv1 (in-place)
I0102 22:10:22.315956 13165 net.cpp:113] Setting up relu1
I0102 22:10:22.316112 13165 net.cpp:120] Top shape: 64 96 55 55 (18585600)
I0102 22:10:22.316129 13165 layer_factory.hpp:74] Creating layer norm1
I0102 22:10:22.316145 13165 net.cpp:84] Creating Layer norm1
I0102 22:10:22.316150 13165 net.cpp:380] norm1 <- conv1
I0102 22:10:22.316159 13165 net.cpp:338] norm1 -> norm1
I0102 22:10:22.316170 13165 net.cpp:113] Setting up norm1
I0102 22:10:22.316181 13165 net.cpp:120] Top shape: 64 96 55 55 (18585600)
I0102 22:10:22.316186 13165 layer_factory.hpp:74] Creating layer pool1
I0102 22:10:22.316200 13165 net.cpp:84] Creating Layer pool1
I0102 22:10:22.316205 13165 net.cpp:380] pool1 <- norm1
I0102 22:10:22.316212 13165 net.cpp:338] pool1 -> pool1
I0102 22:10:22.316218 13165 net.cpp:113] Setting up pool1
I0102 22:10:22.316289 13165 net.cpp:120] Top shape: 64 96 27 27 (4478976)
I0102 22:10:22.316296 13165 layer_factory.hpp:74] Creating layer conv2
I0102 22:10:22.316309 13165 net.cpp:84] Creating Layer conv2
I0102 22:10:22.316314 13165 net.cpp:380] conv2 <- pool1
I0102 22:10:22.316323 13165 net.cpp:338] conv2 -> conv2
I0102 22:10:22.316332 13165 net.cpp:113] Setting up conv2
I0102 22:10:22.326874 13165 net.cpp:120] Top shape: 64 256 27 27 (11943936)
I0102 22:10:22.326900 13165 layer_factory.hpp:74] Creating layer relu2
I0102 22:10:22.326908 13165 net.cpp:84] Creating Layer relu2
I0102 22:10:22.326913 13165 net.cpp:380] relu2 <- conv2
I0102 22:10:22.326920 13165 net.cpp:327] relu2 -> conv2 (in-place)
I0102 22:10:22.326927 13165 net.cpp:113] Setting up relu2
I0102 22:10:22.326973 13165 net.cpp:120] Top shape: 64 256 27 27 (11943936)
I0102 22:10:22.326979 13165 layer_factory.hpp:74] Creating layer norm2
I0102 22:10:22.326988 13165 net.cpp:84] Creating Layer norm2
I0102 22:10:22.326993 13165 net.cpp:380] norm2 <- conv2
I0102 22:10:22.327000 13165 net.cpp:338] norm2 -> norm2
I0102 22:10:22.327008 13165 net.cpp:113] Setting up norm2
I0102 22:10:22.327018 13165 net.cpp:120] Top shape: 64 256 27 27 (11943936)
I0102 22:10:22.327023 13165 layer_factory.hpp:74] Creating layer pool2
I0102 22:10:22.327029 13165 net.cpp:84] Creating Layer pool2
I0102 22:10:22.327034 13165 net.cpp:380] pool2 <- norm2
I0102 22:10:22.327041 13165 net.cpp:338] pool2 -> pool2
I0102 22:10:22.327049 13165 net.cpp:113] Setting up pool2
I0102 22:10:22.327178 13165 net.cpp:120] Top shape: 64 256 13 13 (2768896)
I0102 22:10:22.327186 13165 layer_factory.hpp:74] Creating layer conv3
I0102 22:10:22.327199 13165 net.cpp:84] Creating Layer conv3
I0102 22:10:22.327205 13165 net.cpp:380] conv3 <- pool2
I0102 22:10:22.327231 13165 net.cpp:338] conv3 -> conv3
I0102 22:10:22.327241 13165 net.cpp:113] Setting up conv3
I0102 22:10:22.356598 13165 net.cpp:120] Top shape: 64 384 13 13 (4153344)
I0102 22:10:22.356622 13165 layer_factory.hpp:74] Creating layer relu3
I0102 22:10:22.356631 13165 net.cpp:84] Creating Layer relu3
I0102 22:10:22.356637 13165 net.cpp:380] relu3 <- conv3
I0102 22:10:22.356643 13165 net.cpp:327] relu3 -> conv3 (in-place)
I0102 22:10:22.356650 13165 net.cpp:113] Setting up relu3
I0102 22:10:22.356699 13165 net.cpp:120] Top shape: 64 384 13 13 (4153344)
I0102 22:10:22.356705 13165 layer_factory.hpp:74] Creating layer conv4
I0102 22:10:22.356715 13165 net.cpp:84] Creating Layer conv4
I0102 22:10:22.356720 13165 net.cpp:380] conv4 <- conv3
I0102 22:10:22.356729 13165 net.cpp:338] conv4 -> conv4
I0102 22:10:22.356736 13165 net.cpp:113] Setting up conv4
I0102 22:10:22.378999 13165 net.cpp:120] Top shape: 64 384 13 13 (4153344)
I0102 22:10:22.379021 13165 layer_factory.hpp:74] Creating layer relu4
I0102 22:10:22.379029 13165 net.cpp:84] Creating Layer relu4
I0102 22:10:22.379035 13165 net.cpp:380] relu4 <- conv4
I0102 22:10:22.379042 13165 net.cpp:327] relu4 -> conv4 (in-place)
I0102 22:10:22.379050 13165 net.cpp:113] Setting up relu4
I0102 22:10:22.379101 13165 net.cpp:120] Top shape: 64 384 13 13 (4153344)
I0102 22:10:22.379108 13165 layer_factory.hpp:74] Creating layer conv5
I0102 22:10:22.379117 13165 net.cpp:84] Creating Layer conv5
I0102 22:10:22.379122 13165 net.cpp:380] conv5 <- conv4
I0102 22:10:22.379129 13165 net.cpp:338] conv5 -> conv5
I0102 22:10:22.379138 13165 net.cpp:113] Setting up conv5
I0102 22:10:22.394140 13165 net.cpp:120] Top shape: 64 256 13 13 (2768896)
I0102 22:10:22.394163 13165 layer_factory.hpp:74] Creating layer relu5
I0102 22:10:22.394173 13165 net.cpp:84] Creating Layer relu5
I0102 22:10:22.394178 13165 net.cpp:380] relu5 <- conv5
I0102 22:10:22.394186 13165 net.cpp:327] relu5 -> conv5 (in-place)
I0102 22:10:22.394193 13165 net.cpp:113] Setting up relu5
I0102 22:10:22.394242 13165 net.cpp:120] Top shape: 64 256 13 13 (2768896)
I0102 22:10:22.394248 13165 layer_factory.hpp:74] Creating layer pool5
I0102 22:10:22.394258 13165 net.cpp:84] Creating Layer pool5
I0102 22:10:22.394263 13165 net.cpp:380] pool5 <- conv5
I0102 22:10:22.394270 13165 net.cpp:338] pool5 -> pool5
I0102 22:10:22.394279 13165 net.cpp:113] Setting up pool5
I0102 22:10:22.394405 13165 net.cpp:120] Top shape: 64 256 6 6 (589824)
I0102 22:10:22.394424 13165 layer_factory.hpp:74] Creating layer fc6
I0102 22:10:22.394440 13165 net.cpp:84] Creating Layer fc6
I0102 22:10:22.394445 13165 net.cpp:380] fc6 <- pool5
I0102 22:10:22.394454 13165 net.cpp:338] fc6 -> fc6
I0102 22:10:22.394466 13165 net.cpp:113] Setting up fc6
I0102 22:10:23.599256 13165 net.cpp:120] Top shape: 64 4096 (262144)
I0102 22:10:23.599303 13165 layer_factory.hpp:74] Creating layer relu6
I0102 22:10:23.599319 13165 net.cpp:84] Creating Layer relu6
I0102 22:10:23.599326 13165 net.cpp:380] relu6 <- fc6
I0102 22:10:23.599336 13165 net.cpp:327] relu6 -> fc6 (in-place)
I0102 22:10:23.599347 13165 net.cpp:113] Setting up relu6
I0102 22:10:23.599448 13165 net.cpp:120] Top shape: 64 4096 (262144)
I0102 22:10:23.599462 13165 layer_factory.hpp:74] Creating layer drop6
I0102 22:10:23.599479 13165 net.cpp:84] Creating Layer drop6
I0102 22:10:23.599484 13165 net.cpp:380] drop6 <- fc6
I0102 22:10:23.599491 13165 net.cpp:327] drop6 -> fc6 (in-place)
I0102 22:10:23.599504 13165 net.cpp:113] Setting up drop6
I0102 22:10:23.599516 13165 net.cpp:120] Top shape: 64 4096 (262144)
I0102 22:10:23.599521 13165 layer_factory.hpp:74] Creating layer fc7
I0102 22:10:23.599537 13165 net.cpp:84] Creating Layer fc7
I0102 22:10:23.599542 13165 net.cpp:380] fc7 <- fc6
I0102 22:10:23.599551 13165 net.cpp:338] fc7 -> fc7
I0102 22:10:23.599562 13165 net.cpp:113] Setting up fc7
I0102 22:10:24.134318 13165 net.cpp:120] Top shape: 64 4096 (262144)
I0102 22:10:24.134368 13165 layer_factory.hpp:74] Creating layer relu7
I0102 22:10:24.134385 13165 net.cpp:84] Creating Layer relu7
I0102 22:10:24.134430 13165 net.cpp:380] relu7 <- fc7
I0102 22:10:24.134441 13165 net.cpp:327] relu7 -> fc7 (in-place)
I0102 22:10:24.134454 13165 net.cpp:113] Setting up relu7
I0102 22:10:24.134553 13165 net.cpp:120] Top shape: 64 4096 (262144)
I0102 22:10:24.134568 13165 layer_factory.hpp:74] Creating layer drop7
I0102 22:10:24.134579 13165 net.cpp:84] Creating Layer drop7
I0102 22:10:24.134584 13165 net.cpp:380] drop7 <- fc7
I0102 22:10:24.134591 13165 net.cpp:327] drop7 -> fc7 (in-place)
I0102 22:10:24.134598 13165 net.cpp:113] Setting up drop7
I0102 22:10:24.134606 13165 net.cpp:120] Top shape: 64 4096 (262144)
I0102 22:10:24.134611 13165 layer_factory.hpp:74] Creating layer fc8_cloudless
I0102 22:10:24.134621 13165 net.cpp:84] Creating Layer fc8_cloudless
I0102 22:10:24.134626 13165 net.cpp:380] fc8_cloudless <- fc7
I0102 22:10:24.134634 13165 net.cpp:338] fc8_cloudless -> fc8_cloudless
I0102 22:10:24.134649 13165 net.cpp:113] Setting up fc8_cloudless
I0102 22:10:24.134928 13165 net.cpp:120] Top shape: 64 2 (128)
I0102 22:10:24.134944 13165 layer_factory.hpp:74] Creating layer fc8_cloudless_fc8_cloudless_0_split
I0102 22:10:24.134954 13165 net.cpp:84] Creating Layer fc8_cloudless_fc8_cloudless_0_split
I0102 22:10:24.134959 13165 net.cpp:380] fc8_cloudless_fc8_cloudless_0_split <- fc8_cloudless
I0102 22:10:24.134966 13165 net.cpp:338] fc8_cloudless_fc8_cloudless_0_split -> fc8_cloudless_fc8_cloudless_0_split_0
I0102 22:10:24.134974 13165 net.cpp:338] fc8_cloudless_fc8_cloudless_0_split -> fc8_cloudless_fc8_cloudless_0_split_1
I0102 22:10:24.134981 13165 net.cpp:113] Setting up fc8_cloudless_fc8_cloudless_0_split
I0102 22:10:24.134989 13165 net.cpp:120] Top shape: 64 2 (128)
I0102 22:10:24.134995 13165 net.cpp:120] Top shape: 64 2 (128)
I0102 22:10:24.135000 13165 layer_factory.hpp:74] Creating layer accuracy
I0102 22:10:24.136096 13165 net.cpp:84] Creating Layer accuracy
I0102 22:10:24.136112 13165 net.cpp:380] accuracy <- fc8_cloudless_fc8_cloudless_0_split_0
I0102 22:10:24.136119 13165 net.cpp:380] accuracy <- label_data_1_split_0
I0102 22:10:24.136127 13165 net.cpp:338] accuracy -> accuracy
I0102 22:10:24.136137 13165 net.cpp:113] Setting up accuracy
…
I0102 22:10:24.140393 13165 net.cpp:257] The NetState phase (1) differed from the phase (0) specified by a rule in layer data
I0102 22:10:24.140424 13165 net.cpp:257] The NetState phase (1) differed from the phase (0) specified by a rule in layer accuracy
I0102 22:10:24.140638 13165 net.cpp:42] Initializing net from parameters: 
name: "AlexNet"
state {
  phase: TEST
}
layer {
  name: "data"
  type: "Data"
  top: "data"
  top: "label"
  include {
    phase: TEST
  }
  transform_param {
    mirror: false
    crop_size: 227
    mean_file: "data/imagenet/imagenet_mean.binaryproto"
  }
  data_param {
    source: "data/leveldb/validation_leveldb"
    batch_size: 50
  }
}
layer {
  name: "conv1"
  type: "Convolution"
  bottom: "data"
  top: "conv1"
  param {
    lr_mult: 0
    decay_mult: 1
  }
  param {
    lr_mult: 0
    decay_mult: 0
  }
  convolution_param {
    num_output: 96
    kernel_size: 11
    stride: 4
    weight_filler {
      type: "gaussian"
      std: 0.01
    }
    bias_filler {
      type: "constant"
      value: 0
    }
  }
}
layer {
  name: "relu1"
  type: "ReLU"
  bottom: "conv1"
  top: "conv1"
}
layer {
  name: "norm1"
  type: "LRN"
  bottom: "conv1"
  top: "norm1"
  lrn_param {
    local_size: 5
    alpha: 0.0001
    beta: 0.75
  }
}
layer {
  name: "pool1"
  type: "Pooling"
  bottom: "norm1"
  top: "pool1"
  pooling_param {
    pool: MAX
    kernel_size: 3
    stride: 2
  }
}
layer {
  name: "conv2"
  type: "Convolution"
  bottom: "pool1"
  top: "conv2"
  param {
    lr_mult: 0
    decay_mult: 1
  }
  param {
    lr_mult: 0
    decay_mult: 0
  }
  convolution_param {
    num_output: 256
    pad: 2
    kernel_size: 5
    group: 2
    weight_filler {
      type: "gaussian"
      std: 0.01
    }
    bias_filler {
      type: "constant"
      value: 0.1
    }
  }
}
layer {
  name: "relu2"
  type: "ReLU"
  bottom: "conv2"
  top: "conv2"
}
layer {
  name: "norm2"
  type: "LRN"
  bottom: "conv2"
  top: "norm2"
  lrn_param {
    local_size: 5
    alpha: 0.0001
    beta: 0.75
  }
}
layer {
  name: "pool2"
  type: "Pooling"
  bottom: "norm2"
  top: "pool2"
  pooling_param {
    pool: MAX
    kernel_size: 3
    stride: 2
  }
}
layer {
  name: "conv3"
  type: "Convolution"
  bottom: "pool2"
  top: "conv3"
  param {
    lr_mult: 0
    decay_mult: 1
  }
  param {
    lr_mult: 0
    decay_mult: 0
  }
  convolution_param {
    num_output: 384
    pad: 1
    kernel_size: 3
    weight_filler {
      type: "gaussian"
      std: 0.01
    }
    bias_filler {
      type: "constant"
      value: 0
    }
  }
}
layer {
  name: "relu3"
  type: "ReLU"
  bottom: "conv3"
  top: "conv3"
}
layer {
  name: "conv4"
  type: "Convolution"
  bottom: "conv3"
  top: "conv4"
  param {
    lr_mult: 0
    decay_mult: 1
  }
  param {
    lr_mult: 0
    decay_mult: 0
  }
  convolution_param {
    num_output: 384
    pad: 1
    kernel_size: 3
    group: 2
    weight_filler {
      type: "gaussian"
      std: 0.01
    }
    bias_filler {
      type: "constant"
      value: 0.1
    }
  }
}
layer {
  name: "relu4"
  type: "ReLU"
  bottom: "conv4"
  top: "conv4"
}
layer {
  name: "conv5"
  type: "Convolution"
  bottom: "conv4"
  top: "conv5"
  param {
    lr_mult: 0
    decay_mult: 1
  }
  param {
    lr_mult: 0
    decay_mult: 0
  }
  convolution_param {
    num_output: 256
    pad: 1
    kernel_size: 3
    group: 2
    weight_filler {
      type: "gaussian"
      std: 0.01
    }
    bias_filler {
      type: "constant"
      value: 0.1
    }
  }
}
layer {
  name: "relu5"
  type: "ReLU"
  bottom: "conv5"
  top: "conv5"
}
layer {
  name: "pool5"
  type: "Pooling"
  bottom: "conv5"
  top: "pool5"
  pooling_param {
    pool: MAX
    kernel_size: 3
    stride: 2
  }
}
layer {
  name: "fc6"
  type: "InnerProduct"
  bottom: "pool5"
  top: "fc6"
  param {
    lr_mult: 0
    decay_mult: 1
  }
  param {
    lr_mult: 0
    decay_mult: 0
  }
  inner_product_param {
    num_output: 4096
    weight_filler {
      type: "gaussian"
      std: 0.005
    }
    bias_filler {
      type: "constant"
      value: 0.1
    }
  }
}
layer {
  name: "relu6"
  type: "ReLU"
  bottom: "fc6"
  top: "fc6"
}
layer {
  name: "drop6"
  type: "Dropout"
  bottom: "fc6"
  top: "fc6"
  dropout_param {
    dropout_ratio: 0.5
  }
}
layer {
  name: "fc7"
  type: "InnerProduct"
  bottom: "fc6"
  top: "fc7"
  param {
    lr_mult: 1
    decay_mult: 1
  }
  param {
    lr_mult: 2
    decay_mult: 0
  }
  inner_product_param {
    num_output: 4096
    weight_filler {
      type: "gaussian"
      std: 0.005
    }
    bias_filler {
      type: "constant"
      value: 0.1
    }
  }
}
layer {
  name: "relu7"
  type: "ReLU"
  bottom: "fc7"
  top: "fc7"
}
layer {
  name: "drop7"
  type: "Dropout"
  bottom: "fc7"
  top: "fc7"
  dropout_param {
    dropout_ratio: 0.5
  }
}
layer {
  name: "fc8_cloudless"
  type: "InnerProduct"
  bottom: "fc7"
  top: "fc8_cloudless"
  param {
    lr_mult: 1
    decay_mult: 1
  }
  param {
    lr_mult: 2
    decay_mult: 0
  }
  inner_product_param {
    num_output: 2
    weight_filler {
      type: "gaussian"
      std: 0.01
    }
    bias_filler {
      type: "constant"
      value: 0
    }
  }
}
layer {
  name: "accuracy"
  type: "Accuracy"
  bottom: "fc8_cloudless"
  bottom: "label"
  top: "accuracy"
  include {
    phase: TEST
  }
}
layer {
  name: "loss"
  type: "SoftmaxWithLoss"
  bottom: "fc8_cloudless"
  bottom: "label"
  top: "loss"
}
I0102 22:10:24.140784 13165 layer_factory.hpp:74] Creating layer data
I0102 22:10:24.140802 13165 net.cpp:84] Creating Layer data
I0102 22:10:24.140810 13165 net.cpp:338] data -> data
I0102 22:10:24.140821 13165 net.cpp:338] data -> label
I0102 22:10:24.140830 13165 net.cpp:113] Setting up data
I0102 22:10:27.832329 13165 db.cpp:20] Opened leveldb data/leveldb/validation_leveldb
I0102 22:10:27.832578 13165 data_layer.cpp:67] output data size: 50,3,227,227
I0102 22:10:27.832602 13165 data_transformer.cpp:22] Loading mean file from: data/imagenet/imagenet_mean.binaryproto
I0102 22:10:27.837219 13165 net.cpp:120] Top shape: 50 3 227 227 (7729350)
I0102 22:10:27.837252 13165 net.cpp:120] Top shape: 50 (50)
I0102 22:10:27.837265 13165 layer_factory.hpp:74] Creating layer label_data_1_split
I0102 22:10:27.837282 13165 net.cpp:84] Creating Layer label_data_1_split
I0102 22:10:27.837290 13165 net.cpp:380] label_data_1_split <- label
I0102 22:10:27.837301 13165 net.cpp:338] label_data_1_split -> label_data_1_split_0
I0102 22:10:27.837316 13165 net.cpp:338] label_data_1_split -> label_data_1_split_1
I0102 22:10:27.837322 13165 net.cpp:113] Setting up label_data_1_split
I0102 22:10:27.837333 13165 net.cpp:120] Top shape: 50 (50)
I0102 22:10:27.837338 13165 net.cpp:120] Top shape: 50 (50)
I0102 22:10:27.837378 13165 layer_factory.hpp:74] Creating layer conv1
I0102 22:10:27.837393 13165 net.cpp:84] Creating Layer conv1
I0102 22:10:27.837398 13165 net.cpp:380] conv1 <- data
I0102 22:10:27.837406 13165 net.cpp:338] conv1 -> conv1
I0102 22:10:27.837417 13165 net.cpp:113] Setting up conv1
I0102 22:10:27.838932 13165 net.cpp:120] Top shape: 50 96 55 55 (14520000)
I0102 22:10:27.838958 13165 layer_factory.hpp:74] Creating layer relu1
I0102 22:10:27.838968 13165 net.cpp:84] Creating Layer relu1
I0102 22:10:27.838973 13165 net.cpp:380] relu1 <- conv1
I0102 22:10:27.838979 13165 net.cpp:327] relu1 -> conv1 (in-place)
I0102 22:10:27.838986 13165 net.cpp:113] Setting up relu1
I0102 22:10:27.839118 13165 net.cpp:120] Top shape: 50 96 55 55 (14520000)
I0102 22:10:27.839128 13165 layer_factory.hpp:74] Creating layer norm1
I0102 22:10:27.839138 13165 net.cpp:84] Creating Layer norm1
I0102 22:10:27.839144 13165 net.cpp:380] norm1 <- conv1
I0102 22:10:27.839151 13165 net.cpp:338] norm1 -> norm1
I0102 22:10:27.839159 13165 net.cpp:113] Setting up norm1
I0102 22:10:27.839167 13165 net.cpp:120] Top shape: 50 96 55 55 (14520000)
I0102 22:10:27.839171 13165 layer_factory.hpp:74] Creating layer pool1
I0102 22:10:27.839180 13165 net.cpp:84] Creating Layer pool1
I0102 22:10:27.839185 13165 net.cpp:380] pool1 <- norm1
I0102 22:10:27.839191 13165 net.cpp:338] pool1 -> pool1
I0102 22:10:27.839198 13165 net.cpp:113] Setting up pool1
I0102 22:10:27.839268 13165 net.cpp:120] Top shape: 50 96 27 27 (3499200)
I0102 22:10:27.839277 13165 layer_factory.hpp:74] Creating layer conv2
I0102 22:10:27.839285 13165 net.cpp:84] Creating Layer conv2
I0102 22:10:27.839290 13165 net.cpp:380] conv2 <- pool1
I0102 22:10:27.839299 13165 net.cpp:338] conv2 -> conv2
I0102 22:10:27.839310 13165 net.cpp:113] Setting up conv2
I0102 22:10:27.849673 13165 net.cpp:120] Top shape: 50 256 27 27 (9331200)
I0102 22:10:27.849702 13165 layer_factory.hpp:74] Creating layer relu2
I0102 22:10:27.849714 13165 net.cpp:84] Creating Layer relu2
I0102 22:10:27.849720 13165 net.cpp:380] relu2 <- conv2
I0102 22:10:27.849727 13165 net.cpp:327] relu2 -> conv2 (in-place)
I0102 22:10:27.849736 13165 net.cpp:113] Setting up relu2
I0102 22:10:27.849792 13165 net.cpp:120] Top shape: 50 256 27 27 (9331200)
I0102 22:10:27.849803 13165 layer_factory.hpp:74] Creating layer norm2
I0102 22:10:27.849817 13165 net.cpp:84] Creating Layer norm2
I0102 22:10:27.849823 13165 net.cpp:380] norm2 <- conv2
I0102 22:10:27.849830 13165 net.cpp:338] norm2 -> norm2
I0102 22:10:27.849840 13165 net.cpp:113] Setting up norm2
I0102 22:10:27.849849 13165 net.cpp:120] Top shape: 50 256 27 27 (9331200)
I0102 22:10:27.849854 13165 layer_factory.hpp:74] Creating layer pool2
I0102 22:10:27.849863 13165 net.cpp:84] Creating Layer pool2
I0102 22:10:27.849866 13165 net.cpp:380] pool2 <- norm2
I0102 22:10:27.849874 13165 net.cpp:338] pool2 -> pool2
I0102 22:10:27.849880 13165 net.cpp:113] Setting up pool2
I0102 22:10:27.849934 13165 net.cpp:120] Top shape: 50 256 13 13 (2163200)
I0102 22:10:27.849941 13165 layer_factory.hpp:74] Creating layer conv3
I0102 22:10:27.849951 13165 net.cpp:84] Creating Layer conv3
I0102 22:10:27.849956 13165 net.cpp:380] conv3 <- pool2
I0102 22:10:27.849963 13165 net.cpp:338] conv3 -> conv3
I0102 22:10:27.849972 13165 net.cpp:113] Setting up conv3
I0102 22:10:27.878715 13165 net.cpp:120] Top shape: 50 384 13 13 (3244800)
I0102 22:10:27.878763 13165 layer_factory.hpp:74] Creating layer relu3
I0102 22:10:27.878777 13165 net.cpp:84] Creating Layer relu3
I0102 22:10:27.878785 13165 net.cpp:380] relu3 <- conv3
I0102 22:10:27.878796 13165 net.cpp:327] relu3 -> conv3 (in-place)
I0102 22:10:27.878808 13165 net.cpp:113] Setting up relu3
I0102 22:10:27.878947 13165 net.cpp:120] Top shape: 50 384 13 13 (3244800)
I0102 22:10:27.878957 13165 layer_factory.hpp:74] Creating layer conv4
I0102 22:10:27.878969 13165 net.cpp:84] Creating Layer conv4
I0102 22:10:27.878974 13165 net.cpp:380] conv4 <- conv3
I0102 22:10:27.878983 13165 net.cpp:338] conv4 -> conv4
I0102 22:10:27.879003 13165 net.cpp:113] Setting up conv4
I0102 22:10:27.900701 13165 net.cpp:120] Top shape: 50 384 13 13 (3244800)
I0102 22:10:27.900725 13165 layer_factory.hpp:74] Creating layer relu4
I0102 22:10:27.900734 13165 net.cpp:84] Creating Layer relu4
I0102 22:10:27.900739 13165 net.cpp:380] relu4 <- conv4
I0102 22:10:27.900748 13165 net.cpp:327] relu4 -> conv4 (in-place)
I0102 22:10:27.900754 13165 net.cpp:113] Setting up relu4
I0102 22:10:27.900804 13165 net.cpp:120] Top shape: 50 384 13 13 (3244800)
I0102 22:10:27.900811 13165 layer_factory.hpp:74] Creating layer conv5
I0102 22:10:27.900821 13165 net.cpp:84] Creating Layer conv5
I0102 22:10:27.900826 13165 net.cpp:380] conv5 <- conv4
I0102 22:10:27.900835 13165 net.cpp:338] conv5 -> conv5
I0102 22:10:27.900846 13165 net.cpp:113] Setting up conv5
I0102 22:10:27.915377 13165 net.cpp:120] Top shape: 50 256 13 13 (2163200)
I0102 22:10:27.915402 13165 layer_factory.hpp:74] Creating layer relu5
I0102 22:10:27.915412 13165 net.cpp:84] Creating Layer relu5
I0102 22:10:27.915417 13165 net.cpp:380] relu5 <- conv5
I0102 22:10:27.915426 13165 net.cpp:327] relu5 -> conv5 (in-place)
I0102 22:10:27.915432 13165 net.cpp:113] Setting up relu5
I0102 22:10:27.915482 13165 net.cpp:120] Top shape: 50 256 13 13 (2163200)
I0102 22:10:27.915488 13165 layer_factory.hpp:74] Creating layer pool5
I0102 22:10:27.915501 13165 net.cpp:84] Creating Layer pool5
I0102 22:10:27.915505 13165 net.cpp:380] pool5 <- conv5
I0102 22:10:27.915513 13165 net.cpp:338] pool5 -> pool5
I0102 22:10:27.915521 13165 net.cpp:113] Setting up pool5
I0102 22:10:27.915659 13165 net.cpp:120] Top shape: 50 256 6 6 (460800)
I0102 22:10:27.915676 13165 layer_factory.hpp:74] Creating layer fc6
I0102 22:10:27.915688 13165 net.cpp:84] Creating Layer fc6
I0102 22:10:27.915693 13165 net.cpp:380] fc6 <- pool5
I0102 22:10:27.915701 13165 net.cpp:338] fc6 -> fc6
I0102 22:10:27.915711 13165 net.cpp:113] Setting up fc6
I0102 22:10:29.118162 13165 net.cpp:120] Top shape: 50 4096 (204800)
I0102 22:10:29.118209 13165 layer_factory.hpp:74] Creating layer relu6
I0102 22:10:29.118227 13165 net.cpp:84] Creating Layer relu6
I0102 22:10:29.118233 13165 net.cpp:380] relu6 <- fc6
I0102 22:10:29.118244 13165 net.cpp:327] relu6 -> fc6 (in-place)
I0102 22:10:29.118254 13165 net.cpp:113] Setting up relu6
I0102 22:10:29.118356 13165 net.cpp:120] Top shape: 50 4096 (204800)
I0102 22:10:29.118371 13165 layer_factory.hpp:74] Creating layer drop6
I0102 22:10:29.118381 13165 net.cpp:84] Creating Layer drop6
I0102 22:10:29.118386 13165 net.cpp:380] drop6 <- fc6
I0102 22:10:29.118393 13165 net.cpp:327] drop6 -> fc6 (in-place)
I0102 22:10:29.118402 13165 net.cpp:113] Setting up drop6
I0102 22:10:29.118409 13165 net.cpp:120] Top shape: 50 4096 (204800)
I0102 22:10:29.118414 13165 layer_factory.hpp:74] Creating layer fc7
I0102 22:10:29.118425 13165 net.cpp:84] Creating Layer fc7
I0102 22:10:29.118430 13165 net.cpp:380] fc7 <- fc6
I0102 22:10:29.118439 13165 net.cpp:338] fc7 -> fc7
I0102 22:10:29.118450 13165 net.cpp:113] Setting up fc7
I0102 22:10:29.656237 13165 net.cpp:120] Top shape: 50 4096 (204800)
I0102 22:10:29.656286 13165 layer_factory.hpp:74] Creating layer relu7
I0102 22:10:29.656303 13165 net.cpp:84] Creating Layer relu7
I0102 22:10:29.656311 13165 net.cpp:380] relu7 <- fc7
I0102 22:10:29.656322 13165 net.cpp:327] relu7 -> fc7 (in-place)
I0102 22:10:29.656332 13165 net.cpp:113] Setting up relu7
I0102 22:10:29.656440 13165 net.cpp:120] Top shape: 50 4096 (204800)
I0102 22:10:29.656455 13165 layer_factory.hpp:74] Creating layer drop7
I0102 22:10:29.656466 13165 net.cpp:84] Creating Layer drop7
I0102 22:10:29.656471 13165 net.cpp:380] drop7 <- fc7
I0102 22:10:29.656478 13165 net.cpp:327] drop7 -> fc7 (in-place)
I0102 22:10:29.656486 13165 net.cpp:113] Setting up drop7
I0102 22:10:29.656493 13165 net.cpp:120] Top shape: 50 4096 (204800)
I0102 22:10:29.656498 13165 layer_factory.hpp:74] Creating layer fc8_cloudless
I0102 22:10:29.656509 13165 net.cpp:84] Creating Layer fc8_cloudless
I0102 22:10:29.656515 13165 net.cpp:380] fc8_cloudless <- fc7
I0102 22:10:29.656522 13165 net.cpp:338] fc8_cloudless -> fc8_cloudless
I0102 22:10:29.656572 13165 net.cpp:113] Setting up fc8_cloudless
I0102 22:10:29.656852 13165 net.cpp:120] Top shape: 50 2 (100)
I0102 22:10:29.656868 13165 layer_factory.hpp:74] Creating layer fc8_cloudless_fc8_cloudless_0_split
I0102 22:10:29.656878 13165 net.cpp:84] Creating Layer fc8_cloudless_fc8_cloudless_0_split
I0102 22:10:29.656883 13165 net.cpp:380] fc8_cloudless_fc8_cloudless_0_split <- fc8_cloudless
I0102 22:10:29.656890 13165 net.cpp:338] fc8_cloudless_fc8_cloudless_0_split -> fc8_cloudless_fc8_cloudless_0_split_0
I0102 22:10:29.656899 13165 net.cpp:338] fc8_cloudless_fc8_cloudless_0_split -> fc8_cloudless_fc8_cloudless_0_split_1
I0102 22:10:29.656906 13165 net.cpp:113] Setting up fc8_cloudless_fc8_cloudless_0_split
I0102 22:10:29.656915 13165 net.cpp:120] Top shape: 50 2 (100)
I0102 22:10:29.656921 13165 net.cpp:120] Top shape: 50 2 (100)
I0102 22:10:29.656926 13165 layer_factory.hpp:74] Creating layer accuracy
I0102 22:10:29.656934 13165 net.cpp:84] Creating Layer accuracy
I0102 22:10:29.656939 13165 net.cpp:380] accuracy <- fc8_cloudless_fc8_cloudless_0_split_0
I0102 22:10:29.656945 13165 net.cpp:380] accuracy <- label_data_1_split_0
I0102 22:10:29.656952 13165 net.cpp:338] accuracy -> accuracy
I0102 22:10:29.656960 13165 net.cpp:113] Setting up accuracy
…
