…
I0102 15:39:52.885623 1965929216 net.cpp:322] The NetState phase (0) differed from the phase (1) specified by a rule in layer data
I0102 15:39:52.885653 1965929216 net.cpp:322] The NetState phase (0) differed from the phase (1) specified by a rule in layer accuracy
I0102 15:39:52.885671 1965929216 net.cpp:49] Initializing net from parameters: 
name: "AlexNet"
state {
  phase: TRAIN
}
layer {
  name: "data"
  type: "Data"
  top: "data"
  top: "label"
  include {
    phase: TRAIN
  }
  transform_param {
    mirror: true
    crop_size: 227
    mean_file: "data/imagenet/imagenet_mean.binaryproto"
  }
  data_param {
    source: "data/leveldb/train_leveldb"
    batch_size: 64
  }
}
layer {
  name: "conv1"
  type: "Convolution"
  bottom: "data"
  top: "conv1"
  param {
    lr_mult: 0
    decay_mult: 1
  }
  param {
    lr_mult: 0
    decay_mult: 0
  }
  convolution_param {
    num_output: 96
    kernel_size: 11
    stride: 4
    weight_filler {
      type: "gaussian"
      std: 0.01
    }
    bias_filler {
      type: "constant"
      value: 0
    }
  }
}
layer {
  name: "relu1"
  type: "ReLU"
  bottom: "conv1"
  top: "conv1"
}
layer {
  name: "norm1"
  type: "LRN"
  bottom: "conv1"
  top: "norm1"
  lrn_param {
    local_size: 5
    alpha: 0.0001
    beta: 0.75
  }
}
layer {
  name: "pool1"
  type: "Pooling"
  bottom: "norm1"
  top: "pool1"
  pooling_param {
    pool: MAX
    kernel_size: 3
    stride: 2
  }
}
layer {
  name: "conv2"
  type: "Convolution"
  bottom: "pool1"
  top: "conv2"
  param {
    lr_mult: 0
    decay_mult: 1
  }
  param {
    lr_mult: 0
    decay_mult: 0
  }
  convolution_param {
    num_output: 256
    pad: 2
    kernel_size: 5
    group: 2
    weight_filler {
      type: "gaussian"
      std: 0.01
    }
    bias_filler {
      type: "constant"
      value: 0.1
    }
  }
}
layer {
  name: "relu2"
  type: "ReLU"
  bottom: "conv2"
  top: "conv2"
}
layer {
  name: "norm2"
  type: "LRN"
  bottom: "conv2"
  top: "norm2"
  lrn_param {
    local_size: 5
    alpha: 0.0001
    beta: 0.75
  }
}
layer {
  name: "pool2"
  type: "Pooling"
  bottom: "norm2"
  top: "pool2"
  pooling_param {
    pool: MAX
    kernel_size: 3
    stride: 2
  }
}
layer {
  name: "conv3"
  type: "Convolution"
  bottom: "pool2"
  top: "conv3"
  param {
    lr_mult: 0
    decay_mult: 1
  }
  param {
    lr_mult: 0
    decay_mult: 0
  }
  convolution_param {
    num_output: 384
    pad: 1
    kernel_size: 3
    weight_filler {
      type: "gaussian"
      std: 0.01
    }
    bias_filler {
      type: "constant"
      value: 0
    }
  }
}
layer {
  name: "relu3"
  type: "ReLU"
  bottom: "conv3"
  top: "conv3"
}
layer {
  name: "conv4"
  type: "Convolution"
  bottom: "conv3"
  top: "conv4"
  param {
    lr_mult: 0
    decay_mult: 1
  }
  param {
    lr_mult: 0
    decay_mult: 0
  }
  convolution_param {
    num_output: 384
    pad: 1
    kernel_size: 3
    group: 2
    weight_filler {
      type: "gaussian"
      std: 0.01
    }
    bias_filler {
      type: "constant"
      value: 0.1
    }
  }
}
layer {
  name: "relu4"
  type: "ReLU"
  bottom: "conv4"
  top: "conv4"
}
layer {
  name: "conv5"
  type: "Convolution"
  bottom: "conv4"
  top: "conv5"
  param {
    lr_mult: 0
    decay_mult: 1
  }
  param {
    lr_mult: 0
    decay_mult: 0
  }
  convolution_param {
    num_output: 256
    pad: 1
    kernel_size: 3
    group: 2
    weight_filler {
      type: "gaussian"
      std: 0.01
    }
    bias_filler {
      type: "constant"
      value: 0.1
    }
  }
}
layer {
  name: "relu5"
  type: "ReLU"
  bottom: "conv5"
  top: "conv5"
}
layer {
  name: "pool5"
  type: "Pooling"
  bottom: "conv5"
  top: "pool5"
  pooling_param {
    pool: MAX
    kernel_size: 3
    stride: 2
  }
}
layer {
  name: "fc6"
  type: "InnerProduct"
  bottom: "pool5"
  top: "fc6"
  param {
    lr_mult: 0
    decay_mult: 1
  }
  param {
    lr_mult: 0
    decay_mult: 0
  }
  inner_product_param {
    num_output: 4096
    weight_filler {
      type: "gaussian"
      std: 0.005
    }
    bias_filler {
      type: "constant"
      value: 0.1
    }
  }
}
layer {
  name: "relu6"
  type: "ReLU"
  bottom: "fc6"
  top: "fc6"
}
layer {
  name: "drop6"
  type: "Dropout"
  bottom: "fc6"
  top: "fc6"
  dropout_param {
    dropout_ratio: 0.5
  }
}
layer {
  name: "fc7"
  type: "InnerProduct"
  bottom: "fc6"
  top: "fc7"
  param {
    lr_mult: 1
    decay_mult: 1
  }
  param {
    lr_mult: 2
    decay_mult: 0
  }
  inner_product_param {
    num_output: 4096
    weight_filler {
      type: "gaussian"
      std: 0.005
    }
    bias_filler {
      type: "constant"
      value: 0.1
    }
  }
}
layer {
  name: "relu7"
  type: "ReLU"
  bottom: "fc7"
  top: "fc7"
}
layer {
  name: "drop7"
  type: "Dropout"
  bottom: "fc7"
  top: "fc7"
  dropout_param {
    dropout_ratio: 0.5
  }
}
layer {
  name: "fc8_cloudless"
  type: "InnerProduct"
  bottom: "fc7"
  top: "fc8_cloudless"
  param {
    lr_mult: 1
    decay_mult: 1
  }
  param {
    lr_mult: 2
    decay_mult: 0
  }
  inner_product_param {
    num_output: 2
    weight_filler {
      type: "gaussian"
      std: 0.01
    }
    bias_filler {
      type: "constant"
      value: 0
    }
  }
}
layer {
  name: "accuracy"
  type: "Accuracy"
  bottom: "fc8_cloudless"
  bottom: "label"
  top: "accuracy"
  include {
    phase: TRAIN
  }
}
layer {
  name: "loss"
  type: "SoftmaxWithLoss"
  bottom: "fc8_cloudless"
  bottom: "label"
  top: "loss"
}
I0102 15:39:52.886036 1965929216 layer_factory.hpp:77] Creating layer data
I0102 15:39:52.890329 1965929216 net.cpp:106] Creating Layer data
I0102 15:39:52.890347 1965929216 net.cpp:411] data -> data
I0102 15:39:52.890367 1965929216 net.cpp:411] data -> label
I0102 15:39:52.890379 1965929216 data_transformer.cpp:25] Loading mean file from: data/imagenet/imagenet_mean.binaryproto
I0102 15:39:52.895993 325156864 db_leveldb.cpp:18] Opened leveldb data/leveldb/train_leveldb
I0102 15:39:52.900451 1965929216 data_layer.cpp:41] output data size: 64,3,227,227
I0102 15:39:53.038789 1965929216 net.cpp:150] Setting up data
I0102 15:39:53.038811 1965929216 net.cpp:157] Top shape: 64 3 227 227 (9893568)
I0102 15:39:53.038818 1965929216 net.cpp:157] Top shape: 64 (64)
I0102 15:39:53.038822 1965929216 net.cpp:165] Memory required for data: 39574528
I0102 15:39:53.038835 1965929216 layer_factory.hpp:77] Creating layer label_data_1_split
I0102 15:39:53.038846 1965929216 net.cpp:106] Creating Layer label_data_1_split
I0102 15:39:53.038851 1965929216 net.cpp:454] label_data_1_split <- label
I0102 15:39:53.038857 1965929216 net.cpp:411] label_data_1_split -> label_data_1_split_0
I0102 15:39:53.038866 1965929216 net.cpp:411] label_data_1_split -> label_data_1_split_1
I0102 15:39:53.038945 1965929216 net.cpp:150] Setting up label_data_1_split
I0102 15:39:53.038956 1965929216 net.cpp:157] Top shape: 64 (64)
I0102 15:39:53.038962 1965929216 net.cpp:157] Top shape: 64 (64)
I0102 15:39:53.038990 1965929216 net.cpp:165] Memory required for data: 39575040
I0102 15:39:53.039000 1965929216 layer_factory.hpp:77] Creating layer conv1
I0102 15:39:53.039026 1965929216 net.cpp:106] Creating Layer conv1
I0102 15:39:53.039033 1965929216 net.cpp:454] conv1 <- data
I0102 15:39:53.039044 1965929216 net.cpp:411] conv1 -> conv1
I0102 15:39:53.319582 1965929216 net.cpp:150] Setting up conv1
I0102 15:39:53.319604 1965929216 net.cpp:157] Top shape: 64 96 55 55 (18585600)
I0102 15:39:53.319612 1965929216 net.cpp:165] Memory required for data: 113917440
I0102 15:39:53.319623 1965929216 layer_factory.hpp:77] Creating layer relu1
I0102 15:39:53.319635 1965929216 net.cpp:106] Creating Layer relu1
I0102 15:39:53.319640 1965929216 net.cpp:454] relu1 <- conv1
I0102 15:39:53.319648 1965929216 net.cpp:397] relu1 -> conv1 (in-place)
I0102 15:39:53.319813 1965929216 net.cpp:150] Setting up relu1
I0102 15:39:53.319819 1965929216 net.cpp:157] Top shape: 64 96 55 55 (18585600)
I0102 15:39:53.319824 1965929216 net.cpp:165] Memory required for data: 188259840
I0102 15:39:53.319828 1965929216 layer_factory.hpp:77] Creating layer norm1
I0102 15:39:53.319839 1965929216 net.cpp:106] Creating Layer norm1
I0102 15:39:53.319844 1965929216 net.cpp:454] norm1 <- conv1
I0102 15:39:53.319890 1965929216 net.cpp:411] norm1 -> norm1
I0102 15:39:53.320303 1965929216 net.cpp:150] Setting up norm1
I0102 15:39:53.320315 1965929216 net.cpp:157] Top shape: 64 96 55 55 (18585600)
I0102 15:39:53.320322 1965929216 net.cpp:165] Memory required for data: 262602240
I0102 15:39:53.320327 1965929216 layer_factory.hpp:77] Creating layer pool1
I0102 15:39:53.320338 1965929216 net.cpp:106] Creating Layer pool1
I0102 15:39:53.320343 1965929216 net.cpp:454] pool1 <- norm1
I0102 15:39:53.320348 1965929216 net.cpp:411] pool1 -> pool1
I0102 15:39:53.320672 1965929216 net.cpp:150] Setting up pool1
I0102 15:39:53.320703 1965929216 net.cpp:157] Top shape: 64 96 27 27 (4478976)
I0102 15:39:53.320719 1965929216 net.cpp:165] Memory required for data: 280518144
I0102 15:39:53.320727 1965929216 layer_factory.hpp:77] Creating layer conv2
I0102 15:39:53.320747 1965929216 net.cpp:106] Creating Layer conv2
I0102 15:39:53.320755 1965929216 net.cpp:454] conv2 <- pool1
I0102 15:39:53.320777 1965929216 net.cpp:411] conv2 -> conv2
I0102 15:39:53.326689 1965929216 net.cpp:150] Setting up conv2
I0102 15:39:53.326714 1965929216 net.cpp:157] Top shape: 64 256 27 27 (11943936)
I0102 15:39:53.326721 1965929216 net.cpp:165] Memory required for data: 328293888
I0102 15:39:53.326733 1965929216 layer_factory.hpp:77] Creating layer relu2
I0102 15:39:53.326743 1965929216 net.cpp:106] Creating Layer relu2
I0102 15:39:53.326748 1965929216 net.cpp:454] relu2 <- conv2
I0102 15:39:53.326755 1965929216 net.cpp:397] relu2 -> conv2 (in-place)
I0102 15:39:53.326933 1965929216 net.cpp:150] Setting up relu2
I0102 15:39:53.326967 1965929216 net.cpp:157] Top shape: 64 256 27 27 (11943936)
I0102 15:39:53.327003 1965929216 net.cpp:165] Memory required for data: 376069632
I0102 15:39:53.327014 1965929216 layer_factory.hpp:77] Creating layer norm2
I0102 15:39:53.327030 1965929216 net.cpp:106] Creating Layer norm2
I0102 15:39:53.327038 1965929216 net.cpp:454] norm2 <- conv2
I0102 15:39:53.327044 1965929216 net.cpp:411] norm2 -> norm2
I0102 15:39:53.327456 1965929216 net.cpp:150] Setting up norm2
I0102 15:39:53.327469 1965929216 net.cpp:157] Top shape: 64 256 27 27 (11943936)
I0102 15:39:53.327481 1965929216 net.cpp:165] Memory required for data: 423845376
I0102 15:39:53.327494 1965929216 layer_factory.hpp:77] Creating layer pool2
I0102 15:39:53.327509 1965929216 net.cpp:106] Creating Layer pool2
I0102 15:39:53.327523 1965929216 net.cpp:454] pool2 <- norm2
I0102 15:39:53.327541 1965929216 net.cpp:411] pool2 -> pool2
I0102 15:39:53.327813 1965929216 net.cpp:150] Setting up pool2
I0102 15:39:53.327838 1965929216 net.cpp:157] Top shape: 64 256 13 13 (2768896)
I0102 15:39:53.327849 1965929216 net.cpp:165] Memory required for data: 434920960
I0102 15:39:53.327857 1965929216 layer_factory.hpp:77] Creating layer conv3
I0102 15:39:53.327872 1965929216 net.cpp:106] Creating Layer conv3
I0102 15:39:53.327888 1965929216 net.cpp:454] conv3 <- pool2
I0102 15:39:53.327908 1965929216 net.cpp:411] conv3 -> conv3
I0102 15:39:53.341104 1965929216 net.cpp:150] Setting up conv3
I0102 15:39:53.341128 1965929216 net.cpp:157] Top shape: 64 384 13 13 (4153344)
I0102 15:39:53.341135 1965929216 net.cpp:165] Memory required for data: 451534336
I0102 15:39:53.341145 1965929216 layer_factory.hpp:77] Creating layer relu3
I0102 15:39:53.341223 1965929216 net.cpp:106] Creating Layer relu3
I0102 15:39:53.341250 1965929216 net.cpp:454] relu3 <- conv3
I0102 15:39:53.341279 1965929216 net.cpp:397] relu3 -> conv3 (in-place)
I0102 15:39:53.341583 1965929216 net.cpp:150] Setting up relu3
I0102 15:39:53.341595 1965929216 net.cpp:157] Top shape: 64 384 13 13 (4153344)
I0102 15:39:53.341657 1965929216 net.cpp:165] Memory required for data: 468147712
I0102 15:39:53.341671 1965929216 layer_factory.hpp:77] Creating layer conv4
I0102 15:39:53.341694 1965929216 net.cpp:106] Creating Layer conv4
I0102 15:39:53.341739 1965929216 net.cpp:454] conv4 <- conv3
I0102 15:39:53.341758 1965929216 net.cpp:411] conv4 -> conv4
I0102 15:39:53.352175 1965929216 net.cpp:150] Setting up conv4
I0102 15:39:53.352200 1965929216 net.cpp:157] Top shape: 64 384 13 13 (4153344)
I0102 15:39:53.352205 1965929216 net.cpp:165] Memory required for data: 484761088
I0102 15:39:53.352213 1965929216 layer_factory.hpp:77] Creating layer relu4
I0102 15:39:53.352222 1965929216 net.cpp:106] Creating Layer relu4
I0102 15:39:53.352227 1965929216 net.cpp:454] relu4 <- conv4
I0102 15:39:53.352233 1965929216 net.cpp:397] relu4 -> conv4 (in-place)
I0102 15:39:53.352424 1965929216 net.cpp:150] Setting up relu4
I0102 15:39:53.352432 1965929216 net.cpp:157] Top shape: 64 384 13 13 (4153344)
I0102 15:39:53.352437 1965929216 net.cpp:165] Memory required for data: 501374464
I0102 15:39:53.352442 1965929216 layer_factory.hpp:77] Creating layer conv5
I0102 15:39:53.352450 1965929216 net.cpp:106] Creating Layer conv5
I0102 15:39:53.352478 1965929216 net.cpp:454] conv5 <- conv4
I0102 15:39:53.352497 1965929216 net.cpp:411] conv5 -> conv5
I0102 15:39:53.360510 1965929216 net.cpp:150] Setting up conv5
I0102 15:39:53.360530 1965929216 net.cpp:157] Top shape: 64 256 13 13 (2768896)
I0102 15:39:53.360538 1965929216 net.cpp:165] Memory required for data: 512450048
I0102 15:39:53.360548 1965929216 layer_factory.hpp:77] Creating layer relu5
I0102 15:39:53.360558 1965929216 net.cpp:106] Creating Layer relu5
I0102 15:39:53.360561 1965929216 net.cpp:454] relu5 <- conv5
I0102 15:39:53.360570 1965929216 net.cpp:397] relu5 -> conv5 (in-place)
I0102 15:39:53.360826 1965929216 net.cpp:150] Setting up relu5
I0102 15:39:53.360836 1965929216 net.cpp:157] Top shape: 64 256 13 13 (2768896)
I0102 15:39:53.360843 1965929216 net.cpp:165] Memory required for data: 523525632
I0102 15:39:53.360852 1965929216 layer_factory.hpp:77] Creating layer pool5
I0102 15:39:53.360867 1965929216 net.cpp:106] Creating Layer pool5
I0102 15:39:53.360873 1965929216 net.cpp:454] pool5 <- conv5
I0102 15:39:53.360882 1965929216 net.cpp:411] pool5 -> pool5
I0102 15:39:53.361099 1965929216 net.cpp:150] Setting up pool5
I0102 15:39:53.361111 1965929216 net.cpp:157] Top shape: 64 256 6 6 (589824)
I0102 15:39:53.361120 1965929216 net.cpp:165] Memory required for data: 525884928
I0102 15:39:53.361127 1965929216 layer_factory.hpp:77] Creating layer fc6
I0102 15:39:53.361143 1965929216 net.cpp:106] Creating Layer fc6
I0102 15:39:53.361150 1965929216 net.cpp:454] fc6 <- pool5
I0102 15:39:53.361160 1965929216 net.cpp:411] fc6 -> fc6
I0102 15:39:53.860719 1965929216 net.cpp:150] Setting up fc6
I0102 15:39:53.860743 1965929216 net.cpp:157] Top shape: 64 4096 (262144)
I0102 15:39:53.860760 1965929216 net.cpp:165] Memory required for data: 526933504
I0102 15:39:53.860767 1965929216 layer_factory.hpp:77] Creating layer relu6
I0102 15:39:53.860777 1965929216 net.cpp:106] Creating Layer relu6
I0102 15:39:53.860781 1965929216 net.cpp:454] relu6 <- fc6
I0102 15:39:53.860787 1965929216 net.cpp:397] relu6 -> fc6 (in-place)
I0102 15:39:53.861165 1965929216 net.cpp:150] Setting up relu6
I0102 15:39:53.861173 1965929216 net.cpp:157] Top shape: 64 4096 (262144)
I0102 15:39:53.861191 1965929216 net.cpp:165] Memory required for data: 527982080
I0102 15:39:53.861194 1965929216 layer_factory.hpp:77] Creating layer drop6
I0102 15:39:53.861209 1965929216 net.cpp:106] Creating Layer drop6
I0102 15:39:53.861213 1965929216 net.cpp:454] drop6 <- fc6
I0102 15:39:53.861218 1965929216 net.cpp:397] drop6 -> fc6 (in-place)
I0102 15:39:53.861256 1965929216 net.cpp:150] Setting up drop6
I0102 15:39:53.861261 1965929216 net.cpp:157] Top shape: 64 4096 (262144)
I0102 15:39:53.861265 1965929216 net.cpp:165] Memory required for data: 529030656
I0102 15:39:53.861269 1965929216 layer_factory.hpp:77] Creating layer fc7
I0102 15:39:53.861306 1965929216 net.cpp:106] Creating Layer fc7
I0102 15:39:53.861311 1965929216 net.cpp:454] fc7 <- fc6
I0102 15:39:53.861317 1965929216 net.cpp:411] fc7 -> fc7
I0102 15:39:54.098187 1965929216 net.cpp:150] Setting up fc7
I0102 15:39:54.098212 1965929216 net.cpp:157] Top shape: 64 4096 (262144)
I0102 15:39:54.098227 1965929216 net.cpp:165] Memory required for data: 530079232
I0102 15:39:54.098235 1965929216 layer_factory.hpp:77] Creating layer relu7
I0102 15:39:54.098247 1965929216 net.cpp:106] Creating Layer relu7
I0102 15:39:54.098251 1965929216 net.cpp:454] relu7 <- fc7
I0102 15:39:54.098258 1965929216 net.cpp:397] relu7 -> fc7 (in-place)
I0102 15:39:54.098623 1965929216 net.cpp:150] Setting up relu7
I0102 15:39:54.098631 1965929216 net.cpp:157] Top shape: 64 4096 (262144)
I0102 15:39:54.098635 1965929216 net.cpp:165] Memory required for data: 531127808
I0102 15:39:54.098639 1965929216 layer_factory.hpp:77] Creating layer drop7
I0102 15:39:54.098647 1965929216 net.cpp:106] Creating Layer drop7
I0102 15:39:54.098652 1965929216 net.cpp:454] drop7 <- fc7
I0102 15:39:54.098657 1965929216 net.cpp:397] drop7 -> fc7 (in-place)
I0102 15:39:54.098680 1965929216 net.cpp:150] Setting up drop7
I0102 15:39:54.098695 1965929216 net.cpp:157] Top shape: 64 4096 (262144)
I0102 15:39:54.098698 1965929216 net.cpp:165] Memory required for data: 532176384
I0102 15:39:54.098712 1965929216 layer_factory.hpp:77] Creating layer fc8_cloudless
I0102 15:39:54.098721 1965929216 net.cpp:106] Creating Layer fc8_cloudless
I0102 15:39:54.098726 1965929216 net.cpp:454] fc8_cloudless <- fc7
I0102 15:39:54.098738 1965929216 net.cpp:411] fc8_cloudless -> fc8_cloudless
I0102 15:39:54.099203 1965929216 net.cpp:150] Setting up fc8_cloudless
I0102 15:39:54.099222 1965929216 net.cpp:157] Top shape: 64 2 (128)
I0102 15:39:54.099227 1965929216 net.cpp:165] Memory required for data: 532176896
I0102 15:39:54.099247 1965929216 layer_factory.hpp:77] Creating layer fc8_cloudless_fc8_cloudless_0_split
I0102 15:39:54.099259 1965929216 net.cpp:106] Creating Layer fc8_cloudless_fc8_cloudless_0_split
I0102 15:39:54.099264 1965929216 net.cpp:454] fc8_cloudless_fc8_cloudless_0_split <- fc8_cloudless
I0102 15:39:54.099270 1965929216 net.cpp:411] fc8_cloudless_fc8_cloudless_0_split -> fc8_cloudless_fc8_cloudless_0_split_0
I0102 15:39:54.099278 1965929216 net.cpp:411] fc8_cloudless_fc8_cloudless_0_split -> fc8_cloudless_fc8_cloudless_0_split_1
I0102 15:39:54.099328 1965929216 net.cpp:150] Setting up fc8_cloudless_fc8_cloudless_0_split
I0102 15:39:54.099334 1965929216 net.cpp:157] Top shape: 64 2 (128)
I0102 15:39:54.099339 1965929216 net.cpp:157] Top shape: 64 2 (128)
I0102 15:39:54.099342 1965929216 net.cpp:165] Memory required for data: 532177920
I0102 15:39:54.099352 1965929216 layer_factory.hpp:77] Creating layer accuracy
I0102 15:39:54.099362 1965929216 net.cpp:106] Creating Layer accuracy
I0102 15:39:54.099367 1965929216 net.cpp:454] accuracy <- fc8_cloudless_fc8_cloudless_0_split_0
I0102 15:39:54.099372 1965929216 net.cpp:454] accuracy <- label_data_1_split_0
…
I0102 15:39:54.100328 1965929216 net.cpp:322] The NetState phase (1) differed from the phase (0) specified by a rule in layer accuracy
I0102 15:39:54.100332 1965929216 net.cpp:49] Initializing net from parameters: 
name: "AlexNet"
state {
  phase: TEST
}
layer {
  name: "data"
  type: "Data"
  top: "data"
  top: "label"
  include {
    phase: TEST
  }
  transform_param {
    mirror: false
    crop_size: 227
    mean_file: "data/imagenet/imagenet_mean.binaryproto"
  }
  data_param {
    source: "data/leveldb/validation_leveldb"
    batch_size: 50
  }
}
layer {
  name: "conv1"
  type: "Convolution"
  bottom: "data"
  top: "conv1"
  param {
    lr_mult: 0
    decay_mult: 1
  }
  param {
    lr_mult: 0
    decay_mult: 0
  }
  convolution_param {
    num_output: 96
    kernel_size: 11
    stride: 4
    weight_filler {
      type: "gaussian"
      std: 0.01
    }
    bias_filler {
      type: "constant"
      value: 0
    }
  }
}
layer {
  name: "relu1"
  type: "ReLU"
  bottom: "conv1"
  top: "conv1"
}
layer {
  name: "norm1"
  type: "LRN"
  bottom: "conv1"
  top: "norm1"
  lrn_param {
    local_size: 5
    alpha: 0.0001
    beta: 0.75
  }
}
layer {
  name: "pool1"
  type: "Pooling"
  bottom: "norm1"
  top: "pool1"
  pooling_param {
    pool: MAX
    kernel_size: 3
    stride: 2
  }
}
layer {
  name: "conv2"
  type: "Convolution"
  bottom: "pool1"
  top: "conv2"
  param {
    lr_mult: 0
    decay_mult: 1
  }
  param {
    lr_mult: 0
    decay_mult: 0
  }
  convolution_param {
    num_output: 256
    pad: 2
    kernel_size: 5
    group: 2
    weight_filler {
      type: "gaussian"
      std: 0.01
    }
    bias_filler {
      type: "constant"
      value: 0.1
    }
  }
}
layer {
  name: "relu2"
  type: "ReLU"
  bottom: "conv2"
  top: "conv2"
}
layer {
  name: "norm2"
  type: "LRN"
  bottom: "conv2"
  top: "norm2"
  lrn_param {
    local_size: 5
    alpha: 0.0001
    beta: 0.75
  }
}
layer {
  name: "pool2"
  type: "Pooling"
  bottom: "norm2"
  top: "pool2"
  pooling_param {
    pool: MAX
    kernel_size: 3
    stride: 2
  }
}
layer {
  name: "conv3"
  type: "Convolution"
  bottom: "pool2"
  top: "conv3"
  param {
    lr_mult: 0
    decay_mult: 1
  }
  param {
    lr_mult: 0
    decay_mult: 0
  }
  convolution_param {
    num_output: 384
    pad: 1
    kernel_size: 3
    weight_filler {
      type: "gaussian"
      std: 0.01
    }
    bias_filler {
      type: "constant"
      value: 0
    }
  }
}
layer {
  name: "relu3"
  type: "ReLU"
  bottom: "conv3"
  top: "conv3"
}
layer {
  name: "conv4"
  type: "Convolution"
  bottom: "conv3"
  top: "conv4"
  param {
    lr_mult: 0
    decay_mult: 1
  }
  param {
    lr_mult: 0
    decay_mult: 0
  }
  convolution_param {
    num_output: 384
    pad: 1
    kernel_size: 3
    group: 2
    weight_filler {
      type: "gaussian"
      std: 0.01
    }
    bias_filler {
      type: "constant"
      value: 0.1
    }
  }
}
layer {
  name: "relu4"
  type: "ReLU"
  bottom: "conv4"
  top: "conv4"
}
layer {
  name: "conv5"
  type: "Convolution"
  bottom: "conv4"
  top: "conv5"
  param {
    lr_mult: 0
    decay_mult: 1
  }
  param {
    lr_mult: 0
    decay_mult: 0
  }
  convolution_param {
    num_output: 256
    pad: 1
    kernel_size: 3
    group: 2
    weight_filler {
      type: "gaussian"
      std: 0.01
    }
    bias_filler {
      type: "constant"
      value: 0.1
    }
  }
}
layer {
  name: "relu5"
  type: "ReLU"
  bottom: "conv5"
  top: "conv5"
}
layer {
  name: "pool5"
  type: "Pooling"
  bottom: "conv5"
  top: "pool5"
  pooling_param {
    pool: MAX
    kernel_size: 3
    stride: 2
  }
}
layer {
  name: "fc6"
  type: "InnerProduct"
  bottom: "pool5"
  top: "fc6"
  param {
    lr_mult: 0
    decay_mult: 1
  }
  param {
    lr_mult: 0
    decay_mult: 0
  }
  inner_product_param {
    num_output: 4096
    weight_filler {
      type: "gaussian"
      std: 0.005
    }
    bias_filler {
      type: "constant"
      value: 0.1
    }
  }
}
layer {
  name: "relu6"
  type: "ReLU"
  bottom: "fc6"
  top: "fc6"
}
layer {
  name: "drop6"
  type: "Dropout"
  bottom: "fc6"
  top: "fc6"
  dropout_param {
    dropout_ratio: 0.5
  }
}
layer {
  name: "fc7"
  type: "InnerProduct"
  bottom: "fc6"
  top: "fc7"
  param {
    lr_mult: 1
    decay_mult: 1
  }
  param {
    lr_mult: 2
    decay_mult: 0
  }
  inner_product_param {
    num_output: 4096
    weight_filler {
      type: "gaussian"
      std: 0.005
    }
    bias_filler {
      type: "constant"
      value: 0.1
    }
  }
}
layer {
  name: "relu7"
  type: "ReLU"
  bottom: "fc7"
  top: "fc7"
}
layer {
  name: "drop7"
  type: "Dropout"
  bottom: "fc7"
  top: "fc7"
  dropout_param {
    dropout_ratio: 0.5
  }
}
layer {
  name: "fc8_cloudless"
  type: "InnerProduct"
  bottom: "fc7"
  top: "fc8_cloudless"
  param {
    lr_mult: 1
    decay_mult: 1
  }
  param {
    lr_mult: 2
    decay_mult: 0
  }
  inner_product_param {
    num_output: 2
    weight_filler {
      type: "gaussian"
      std: 0.01
    }
    bias_filler {
      type: "constant"
      value: 0
    }
  }
}
layer {
  name: "accuracy"
  type: "Accuracy"
  bottom: "fc8_cloudless"
  bottom: "label"
  top: "accuracy"
  include {
    phase: TEST
  }
}
layer {
  name: "loss"
  type: "SoftmaxWithLoss"
  bottom: "fc8_cloudless"
  bottom: "label"
  top: "loss"
}
I0102 15:39:54.100607 1965929216 layer_factory.hpp:77] Creating layer data
I0102 15:39:54.100760 1965929216 net.cpp:106] Creating Layer data
I0102 15:39:54.100769 1965929216 net.cpp:411] data -> data
I0102 15:39:54.100781 1965929216 net.cpp:411] data -> label
I0102 15:39:54.100810 1965929216 data_transformer.cpp:25] Loading mean file from: data/imagenet/imagenet_mean.binaryproto
I0102 15:39:54.109246 977723392 db_leveldb.cpp:18] Opened leveldb data/leveldb/validation_leveldb
I0102 15:39:54.109843 1965929216 data_layer.cpp:41] output data size: 50,3,227,227
I0102 15:39:54.227869 1965929216 net.cpp:150] Setting up data
I0102 15:39:54.227903 1965929216 net.cpp:157] Top shape: 50 3 227 227 (7729350)
I0102 15:39:54.227994 1965929216 net.cpp:157] Top shape: 50 (50)
I0102 15:39:54.228005 1965929216 net.cpp:165] Memory required for data: 30917600
I0102 15:39:54.228013 1965929216 layer_factory.hpp:77] Creating layer label_data_1_split
I0102 15:39:54.228024 1965929216 net.cpp:106] Creating Layer label_data_1_split
I0102 15:39:54.228029 1965929216 net.cpp:454] label_data_1_split <- label
I0102 15:39:54.228036 1965929216 net.cpp:411] label_data_1_split -> label_data_1_split_0
I0102 15:39:54.228045 1965929216 net.cpp:411] label_data_1_split -> label_data_1_split_1
I0102 15:39:54.228102 1965929216 net.cpp:150] Setting up label_data_1_split
I0102 15:39:54.228106 1965929216 net.cpp:157] Top shape: 50 (50)
I0102 15:39:54.228111 1965929216 net.cpp:157] Top shape: 50 (50)
I0102 15:39:54.228116 1965929216 net.cpp:165] Memory required for data: 30918000
I0102 15:39:54.228122 1965929216 layer_factory.hpp:77] Creating layer conv1
I0102 15:39:54.228143 1965929216 net.cpp:106] Creating Layer conv1
I0102 15:39:54.228148 1965929216 net.cpp:454] conv1 <- data
I0102 15:39:54.228154 1965929216 net.cpp:411] conv1 -> conv1
I0102 15:39:54.229506 1965929216 net.cpp:150] Setting up conv1
I0102 15:39:54.229516 1965929216 net.cpp:157] Top shape: 50 96 55 55 (14520000)
I0102 15:39:54.229533 1965929216 net.cpp:165] Memory required for data: 88998000
I0102 15:39:54.229542 1965929216 layer_factory.hpp:77] Creating layer relu1
I0102 15:39:54.229548 1965929216 net.cpp:106] Creating Layer relu1
I0102 15:39:54.229553 1965929216 net.cpp:454] relu1 <- conv1
I0102 15:39:54.229559 1965929216 net.cpp:397] relu1 -> conv1 (in-place)
I0102 15:39:54.229686 1965929216 net.cpp:150] Setting up relu1
I0102 15:39:54.229691 1965929216 net.cpp:157] Top shape: 50 96 55 55 (14520000)
I0102 15:39:54.229696 1965929216 net.cpp:165] Memory required for data: 147078000
I0102 15:39:54.229701 1965929216 layer_factory.hpp:77] Creating layer norm1
I0102 15:39:54.229709 1965929216 net.cpp:106] Creating Layer norm1
I0102 15:39:54.229713 1965929216 net.cpp:454] norm1 <- conv1
I0102 15:39:54.229725 1965929216 net.cpp:411] norm1 -> norm1
I0102 15:39:54.229943 1965929216 net.cpp:150] Setting up norm1
I0102 15:39:54.229951 1965929216 net.cpp:157] Top shape: 50 96 55 55 (14520000)
I0102 15:39:54.229956 1965929216 net.cpp:165] Memory required for data: 205158000
I0102 15:39:54.229960 1965929216 layer_factory.hpp:77] Creating layer pool1
I0102 15:39:54.229969 1965929216 net.cpp:106] Creating Layer pool1
I0102 15:39:54.229974 1965929216 net.cpp:454] pool1 <- norm1
I0102 15:39:54.229979 1965929216 net.cpp:411] pool1 -> pool1
I0102 15:39:54.230129 1965929216 net.cpp:150] Setting up pool1
I0102 15:39:54.230134 1965929216 net.cpp:157] Top shape: 50 96 27 27 (3499200)
I0102 15:39:54.230140 1965929216 net.cpp:165] Memory required for data: 219154800
I0102 15:39:54.230144 1965929216 layer_factory.hpp:77] Creating layer conv2
I0102 15:39:54.230161 1965929216 net.cpp:106] Creating Layer conv2
I0102 15:39:54.230165 1965929216 net.cpp:454] conv2 <- pool1
I0102 15:39:54.230171 1965929216 net.cpp:411] conv2 -> conv2
I0102 15:39:54.253134 1965929216 net.cpp:150] Setting up conv2
I0102 15:39:54.253156 1965929216 net.cpp:157] Top shape: 50 256 27 27 (9331200)
I0102 15:39:54.253165 1965929216 net.cpp:165] Memory required for data: 256479600
I0102 15:39:54.253177 1965929216 layer_factory.hpp:77] Creating layer relu2
I0102 15:39:54.253187 1965929216 net.cpp:106] Creating Layer relu2
I0102 15:39:54.253226 1965929216 net.cpp:454] relu2 <- conv2
I0102 15:39:54.253235 1965929216 net.cpp:397] relu2 -> conv2 (in-place)
I0102 15:39:54.253576 1965929216 net.cpp:150] Setting up relu2
I0102 15:39:54.253592 1965929216 net.cpp:157] Top shape: 50 256 27 27 (9331200)
I0102 15:39:54.253599 1965929216 net.cpp:165] Memory required for data: 293804400
I0102 15:39:54.253604 1965929216 layer_factory.hpp:77] Creating layer norm2
I0102 15:39:54.253615 1965929216 net.cpp:106] Creating Layer norm2
I0102 15:39:54.253621 1965929216 net.cpp:454] norm2 <- conv2
I0102 15:39:54.253628 1965929216 net.cpp:411] norm2 -> norm2
I0102 15:39:54.253932 1965929216 net.cpp:150] Setting up norm2
I0102 15:39:54.253947 1965929216 net.cpp:157] Top shape: 50 256 27 27 (9331200)
I0102 15:39:54.253959 1965929216 net.cpp:165] Memory required for data: 331129200
I0102 15:39:54.253968 1965929216 layer_factory.hpp:77] Creating layer pool2
I0102 15:39:54.253984 1965929216 net.cpp:106] Creating Layer pool2
I0102 15:39:54.253993 1965929216 net.cpp:454] pool2 <- norm2
I0102 15:39:54.254005 1965929216 net.cpp:411] pool2 -> pool2
I0102 15:39:54.254495 1965929216 net.cpp:150] Setting up pool2
I0102 15:39:54.254508 1965929216 net.cpp:157] Top shape: 50 256 13 13 (2163200)
I0102 15:39:54.254550 1965929216 net.cpp:165] Memory required for data: 339782000
I0102 15:39:54.254559 1965929216 layer_factory.hpp:77] Creating layer conv3
I0102 15:39:54.254572 1965929216 net.cpp:106] Creating Layer conv3
I0102 15:39:54.254577 1965929216 net.cpp:454] conv3 <- pool2
I0102 15:39:54.254586 1965929216 net.cpp:411] conv3 -> conv3
I0102 15:39:54.268519 1965929216 net.cpp:150] Setting up conv3
I0102 15:39:54.268538 1965929216 net.cpp:157] Top shape: 50 384 13 13 (3244800)
I0102 15:39:54.268544 1965929216 net.cpp:165] Memory required for data: 352761200
I0102 15:39:54.268554 1965929216 layer_factory.hpp:77] Creating layer relu3
I0102 15:39:54.268563 1965929216 net.cpp:106] Creating Layer relu3
I0102 15:39:54.268568 1965929216 net.cpp:454] relu3 <- conv3
I0102 15:39:54.268573 1965929216 net.cpp:397] relu3 -> conv3 (in-place)
I0102 15:39:54.268723 1965929216 net.cpp:150] Setting up relu3
I0102 15:39:54.268733 1965929216 net.cpp:157] Top shape: 50 384 13 13 (3244800)
I0102 15:39:54.268741 1965929216 net.cpp:165] Memory required for data: 365740400
I0102 15:39:54.268748 1965929216 layer_factory.hpp:77] Creating layer conv4
I0102 15:39:54.268760 1965929216 net.cpp:106] Creating Layer conv4
I0102 15:39:54.268764 1965929216 net.cpp:454] conv4 <- conv3
I0102 15:39:54.268770 1965929216 net.cpp:411] conv4 -> conv4
I0102 15:39:54.291194 1965929216 net.cpp:150] Setting up conv4
I0102 15:39:54.291223 1965929216 net.cpp:157] Top shape: 50 384 13 13 (3244800)
I0102 15:39:54.291231 1965929216 net.cpp:165] Memory required for data: 378719600
I0102 15:39:54.291240 1965929216 layer_factory.hpp:77] Creating layer relu4
I0102 15:39:54.291254 1965929216 net.cpp:106] Creating Layer relu4
I0102 15:39:54.291285 1965929216 net.cpp:454] relu4 <- conv4
I0102 15:39:54.291307 1965929216 net.cpp:397] relu4 -> conv4 (in-place)
I0102 15:39:54.293921 1965929216 net.cpp:150] Setting up relu4
I0102 15:39:54.293932 1965929216 net.cpp:157] Top shape: 50 384 13 13 (3244800)
I0102 15:39:54.293948 1965929216 net.cpp:165] Memory required for data: 391698800
I0102 15:39:54.293953 1965929216 layer_factory.hpp:77] Creating layer conv5
I0102 15:39:54.293965 1965929216 net.cpp:106] Creating Layer conv5
I0102 15:39:54.293970 1965929216 net.cpp:454] conv5 <- conv4
I0102 15:39:54.293978 1965929216 net.cpp:411] conv5 -> conv5
I0102 15:39:54.312381 1965929216 net.cpp:150] Setting up conv5
I0102 15:39:54.312399 1965929216 net.cpp:157] Top shape: 50 256 13 13 (2163200)
I0102 15:39:54.312407 1965929216 net.cpp:165] Memory required for data: 400351600
I0102 15:39:54.312422 1965929216 layer_factory.hpp:77] Creating layer relu5
I0102 15:39:54.312430 1965929216 net.cpp:106] Creating Layer relu5
I0102 15:39:54.312435 1965929216 net.cpp:454] relu5 <- conv5
I0102 15:39:54.312448 1965929216 net.cpp:397] relu5 -> conv5 (in-place)
I0102 15:39:54.315337 1965929216 net.cpp:150] Setting up relu5
I0102 15:39:54.315366 1965929216 net.cpp:157] Top shape: 50 256 13 13 (2163200)
I0102 15:39:54.315376 1965929216 net.cpp:165] Memory required for data: 409004400
I0102 15:39:54.315397 1965929216 layer_factory.hpp:77] Creating layer pool5
I0102 15:39:54.315417 1965929216 net.cpp:106] Creating Layer pool5
I0102 15:39:54.315425 1965929216 net.cpp:454] pool5 <- conv5
I0102 15:39:54.315435 1965929216 net.cpp:411] pool5 -> pool5
I0102 15:39:54.315843 1965929216 net.cpp:150] Setting up pool5
I0102 15:39:54.315855 1965929216 net.cpp:157] Top shape: 50 256 6 6 (460800)
I0102 15:39:54.315862 1965929216 net.cpp:165] Memory required for data: 410847600
I0102 15:39:54.315871 1965929216 layer_factory.hpp:77] Creating layer fc6
I0102 15:39:54.315882 1965929216 net.cpp:106] Creating Layer fc6
I0102 15:39:54.315894 1965929216 net.cpp:454] fc6 <- pool5
I0102 15:39:54.315906 1965929216 net.cpp:411] fc6 -> fc6
I0102 15:39:54.888492 1965929216 net.cpp:150] Setting up fc6
I0102 15:39:54.888530 1965929216 net.cpp:157] Top shape: 50 4096 (204800)
I0102 15:39:54.888535 1965929216 net.cpp:165] Memory required for data: 411666800
I0102 15:39:54.888543 1965929216 layer_factory.hpp:77] Creating layer relu6
I0102 15:39:54.888553 1965929216 net.cpp:106] Creating Layer relu6
I0102 15:39:54.888558 1965929216 net.cpp:454] relu6 <- fc6
I0102 15:39:54.888567 1965929216 net.cpp:397] relu6 -> fc6 (in-place)
I0102 15:39:54.888770 1965929216 net.cpp:150] Setting up relu6
I0102 15:39:54.888777 1965929216 net.cpp:157] Top shape: 50 4096 (204800)
I0102 15:39:54.888782 1965929216 net.cpp:165] Memory required for data: 412486000
I0102 15:39:54.888787 1965929216 layer_factory.hpp:77] Creating layer drop6
I0102 15:39:54.888792 1965929216 net.cpp:106] Creating Layer drop6
I0102 15:39:54.888797 1965929216 net.cpp:454] drop6 <- fc6
I0102 15:39:54.888802 1965929216 net.cpp:397] drop6 -> fc6 (in-place)
I0102 15:39:54.888833 1965929216 net.cpp:150] Setting up drop6
I0102 15:39:54.888876 1965929216 net.cpp:157] Top shape: 50 4096 (204800)
I0102 15:39:54.888890 1965929216 net.cpp:165] Memory required for data: 413305200
I0102 15:39:54.888895 1965929216 layer_factory.hpp:77] Creating layer fc7
I0102 15:39:54.888911 1965929216 net.cpp:106] Creating Layer fc7
I0102 15:39:54.888916 1965929216 net.cpp:454] fc7 <- fc6
I0102 15:39:54.888923 1965929216 net.cpp:411] fc7 -> fc7
I0102 15:39:55.107664 1965929216 net.cpp:150] Setting up fc7
I0102 15:39:55.107684 1965929216 net.cpp:157] Top shape: 50 4096 (204800)
I0102 15:39:55.107700 1965929216 net.cpp:165] Memory required for data: 414124400
I0102 15:39:55.107707 1965929216 layer_factory.hpp:77] Creating layer relu7
I0102 15:39:55.107718 1965929216 net.cpp:106] Creating Layer relu7
I0102 15:39:55.107722 1965929216 net.cpp:454] relu7 <- fc7
I0102 15:39:55.107728 1965929216 net.cpp:397] relu7 -> fc7 (in-place)
I0102 15:39:55.108086 1965929216 net.cpp:150] Setting up relu7
I0102 15:39:55.108104 1965929216 net.cpp:157] Top shape: 50 4096 (204800)
I0102 15:39:55.108108 1965929216 net.cpp:165] Memory required for data: 414943600
I0102 15:39:55.108122 1965929216 layer_factory.hpp:77] Creating layer drop7
I0102 15:39:55.108130 1965929216 net.cpp:106] Creating Layer drop7
I0102 15:39:55.108135 1965929216 net.cpp:454] drop7 <- fc7
I0102 15:39:55.108140 1965929216 net.cpp:397] drop7 -> fc7 (in-place)
I0102 15:39:55.108167 1965929216 net.cpp:150] Setting up drop7
I0102 15:39:55.108182 1965929216 net.cpp:157] Top shape: 50 4096 (204800)
I0102 15:39:55.108187 1965929216 net.cpp:165] Memory required for data: 415762800
I0102 15:39:55.108191 1965929216 layer_factory.hpp:77] Creating layer fc8_cloudless
I0102 15:39:55.108198 1965929216 net.cpp:106] Creating Layer fc8_cloudless
I0102 15:39:55.108202 1965929216 net.cpp:454] fc8_cloudless <- fc7
I0102 15:39:55.108209 1965929216 net.cpp:411] fc8_cloudless -> fc8_cloudless
I0102 15:39:55.108465 1965929216 net.cpp:150] Setting up fc8_cloudless
I0102 15:39:55.108479 1965929216 net.cpp:157] Top shape: 50 2 (100)
I0102 15:39:55.108484 1965929216 net.cpp:165] Memory required for data: 415763200
I0102 15:39:55.108516 1965929216 layer_factory.hpp:77] Creating layer fc8_cloudless_fc8_cloudless_0_split
I0102 15:39:55.108527 1965929216 net.cpp:106] Creating Layer fc8_cloudless_fc8_cloudless_0_split
I0102 15:39:55.108531 1965929216 net.cpp:454] fc8_cloudless_fc8_cloudless_0_split <- fc8_cloudless
I0102 15:39:55.108537 1965929216 net.cpp:411] fc8_cloudless_fc8_cloudless_0_split -> fc8_cloudless_fc8_cloudless_0_split_0
I0102 15:39:55.108551 1965929216 net.cpp:411] fc8_cloudless_fc8_cloudless_0_split -> fc8_cloudless_fc8_cloudless_0_split_1
I0102 15:39:55.108590 1965929216 net.cpp:150] Setting up fc8_cloudless_fc8_cloudless_0_split
I0102 15:39:55.108595 1965929216 net.cpp:157] Top shape: 50 2 (100)
I0102 15:39:55.108600 1965929216 net.cpp:157] Top shape: 50 2 (100)
I0102 15:39:55.108604 1965929216 net.cpp:165] Memory required for data: 415764000
I0102 15:39:55.108608 1965929216 layer_factory.hpp:77] Creating layer accuracy
I0102 15:39:55.108615 1965929216 net.cpp:106] Creating Layer accuracy
I0102 15:39:55.108623 1965929216 net.cpp:454] accuracy <- fc8_cloudless_fc8_cloudless_0_split_0
I0102 15:39:55.108630 1965929216 net.cpp:454] accuracy <- label_data_1_split_0
…
