…
I0903 05:21:41.312839  1793 net.cpp:257] The NetState phase (0) differed from the phase (1) specified by a rule in layer data
I0903 05:21:41.312902  1793 net.cpp:257] The NetState phase (0) differed from the phase (1) specified by a rule in layer accuracy
I0903 05:21:41.313141  1793 net.cpp:42] Initializing net from parameters: 
name: "AlexNet"
state {
  phase: TRAIN
}
layer {
  name: "data"
  type: "Data"
  top: "data"
  top: "label"
  include {
    phase: TRAIN
  }
  transform_param {
    mirror: true
    crop_size: 227
    mean_file: "data/imagenet/imagenet_mean.binaryproto"
  }
  data_param {
    source: "data/leveldb/train_leveldb"
    batch_size: 64
  }
}
layer {
  name: "conv1"
  type: "Convolution"
  bottom: "data"
  top: "conv1"
  param {
    lr_mult: 0
    decay_mult: 1
  }
  param {
    lr_mult: 0
    decay_mult: 0
  }
  convolution_param {
    num_output: 96
    kernel_size: 11
    stride: 4
    weight_filler {
      type: "gaussian"
      std: 0.01
    }
    bias_filler {
      type: "constant"
      value: 0
    }
  }
}
layer {
  name: "relu1"
  type: "ReLU"
  bottom: "conv1"
  top: "conv1"
}
layer {
  name: "norm1"
  type: "LRN"
  bottom: "conv1"
  top: "norm1"
  lrn_param {
    local_size: 5
    alpha: 0.0001
    beta: 0.75
  }
}
layer {
  name: "pool1"
  type: "Pooling"
  bottom: "norm1"
  top: "pool1"
  pooling_param {
    pool: MAX
    kernel_size: 3
    stride: 2
  }
}
layer {
  name: "conv2"
  type: "Convolution"
  bottom: "pool1"
  top: "conv2"
  param {
    lr_mult: 0
    decay_mult: 1
  }
  param {
    lr_mult: 0
    decay_mult: 0
  }
  convolution_param {
    num_output: 256
    pad: 2
    kernel_size: 5
    group: 2
    weight_filler {
      type: "gaussian"
      std: 0.01
    }
    bias_filler {
      type: "constant"
      value: 0.1
    }
  }
}
layer {
  name: "relu2"
  type: "ReLU"
  bottom: "conv2"
  top: "conv2"
}
layer {
  name: "norm2"
  type: "LRN"
  bottom: "conv2"
  top: "norm2"
  lrn_param {
    local_size: 5
    alpha: 0.0001
    beta: 0.75
  }
}
layer {
  name: "pool2"
  type: "Pooling"
  bottom: "norm2"
  top: "pool2"
  pooling_param {
    pool: MAX
    kernel_size: 3
    stride: 2
  }
}
layer {
  name: "conv3"
  type: "Convolution"
  bottom: "pool2"
  top: "conv3"
  param {
    lr_mult: 0
    decay_mult: 1
  }
  param {
    lr_mult: 0
    decay_mult: 0
  }
  convolution_param {
    num_output: 384
    pad: 1
    kernel_size: 3
    weight_filler {
      type: "gaussian"
      std: 0.01
    }
    bias_filler {
      type: "constant"
      value: 0
    }
  }
}
layer {
  name: "relu3"
  type: "ReLU"
  bottom: "conv3"
  top: "conv3"
}
layer {
  name: "conv4"
  type: "Convolution"
  bottom: "conv3"
  top: "conv4"
  param {
    lr_mult: 0
    decay_mult: 1
  }
  param {
    lr_mult: 0
    decay_mult: 0
  }
  convolution_param {
    num_output: 384
    pad: 1
    kernel_size: 3
    group: 2
    weight_filler {
      type: "gaussian"
      std: 0.01
    }
    bias_filler {
      type: "constant"
      value: 0.1
    }
  }
}
layer {
  name: "relu4"
  type: "ReLU"
  bottom: "conv4"
  top: "conv4"
}
layer {
  name: "conv5"
  type: "Convolution"
  bottom: "conv4"
  top: "conv5"
  param {
    lr_mult: 0
    decay_mult: 1
  }
  param {
    lr_mult: 0
    decay_mult: 0
  }
  convolution_param {
    num_output: 256
    pad: 1
    kernel_size: 3
    group: 2
    weight_filler {
      type: "gaussian"
      std: 0.01
    }
    bias_filler {
      type: "constant"
      value: 0.1
    }
  }
}
layer {
  name: "relu5"
  type: "ReLU"
  bottom: "conv5"
  top: "conv5"
}
layer {
  name: "pool5"
  type: "Pooling"
  bottom: "conv5"
  top: "pool5"
  pooling_param {
    pool: MAX
    kernel_size: 3
    stride: 2
  }
}
layer {
  name: "fc6"
  type: "InnerProduct"
  bottom: "pool5"
  top: "fc6"
  param {
    lr_mult: 0
    decay_mult: 1
  }
  param {
    lr_mult: 0
    decay_mult: 0
  }
  inner_product_param {
    num_output: 4096
    weight_filler {
      type: "gaussian"
      std: 0.005
    }
    bias_filler {
      type: "constant"
      value: 0.1
    }
  }
}
layer {
  name: "relu6"
  type: "ReLU"
  bottom: "fc6"
  top: "fc6"
}
layer {
  name: "drop6"
  type: "Dropout"
  bottom: "fc6"
  top: "fc6"
  dropout_param {
    dropout_ratio: 0.5
  }
}
layer {
  name: "fc7"
  type: "InnerProduct"
  bottom: "fc6"
  top: "fc7"
  param {
    lr_mult: 1
    decay_mult: 1
  }
  param {
    lr_mult: 2
    decay_mult: 0
  }
  inner_product_param {
    num_output: 4096
    weight_filler {
      type: "gaussian"
      std: 0.005
    }
    bias_filler {
      type: "constant"
      value: 0.1
    }
  }
}
layer {
  name: "relu7"
  type: "ReLU"
  bottom: "fc7"
  top: "fc7"
}
layer {
  name: "drop7"
  type: "Dropout"
  bottom: "fc7"
  top: "fc7"
  dropout_param {
    dropout_ratio: 0.5
  }
}
layer {
  name: "fc8_cloudless"
  type: "InnerProduct"
  bottom: "fc7"
  top: "fc8_cloudless"
  param {
    lr_mult: 1
    decay_mult: 1
  }
  param {
    lr_mult: 2
    decay_mult: 0
  }
  inner_product_param {
    num_output: 2
    weight_filler {
      type: "gaussian"
      std: 0.01
    }
    bias_filler {
      type: "constant"
      value: 0
    }
  }
}
layer {
  name: "accuracy"
  type: "Accuracy"
  bottom: "fc8_cloudless"
  bottom: "label"
  top: "accuracy"
  include {
    phase: TRAIN
  }
}
layer {
  name: "loss"
  type: "SoftmaxWithLoss"
  bottom: "fc8_cloudless"
  bottom: "label"
  top: "loss"
}
I0903 05:21:41.313347  1793 layer_factory.hpp:74] Creating layer data
I0903 05:21:41.314110  1793 net.cpp:84] Creating Layer data
I0903 05:21:41.314131  1793 net.cpp:338] data -> data
I0903 05:21:41.314182  1793 net.cpp:338] data -> label
I0903 05:21:41.314198  1793 net.cpp:113] Setting up data
I0903 05:21:49.279216  1793 db.cpp:20] Opened leveldb data/leveldb/train_leveldb
I0903 05:21:49.279397  1793 data_layer.cpp:67] output data size: 64,3,227,227
I0903 05:21:49.279428  1793 data_transformer.cpp:22] Loading mean file from: data/imagenet/imagenet_mean.binaryproto
I0903 05:21:49.578682  1793 net.cpp:120] Top shape: 64 3 227 227 (9893568)
I0903 05:21:49.578726  1793 net.cpp:120] Top shape: 64 (64)
I0903 05:21:49.578737  1793 layer_factory.hpp:74] Creating layer label_data_1_split
I0903 05:21:49.578754  1793 net.cpp:84] Creating Layer label_data_1_split
I0903 05:21:49.578761  1793 net.cpp:380] label_data_1_split <- label
I0903 05:21:49.578778  1793 net.cpp:338] label_data_1_split -> label_data_1_split_0
I0903 05:21:49.578791  1793 net.cpp:338] label_data_1_split -> label_data_1_split_1
I0903 05:21:49.578799  1793 net.cpp:113] Setting up label_data_1_split
I0903 05:21:49.579843  1793 net.cpp:120] Top shape: 64 (64)
I0903 05:21:49.579860  1793 net.cpp:120] Top shape: 64 (64)
I0903 05:21:49.579866  1793 layer_factory.hpp:74] Creating layer conv1
I0903 05:21:49.579885  1793 net.cpp:84] Creating Layer conv1
I0903 05:21:49.579891  1793 net.cpp:380] conv1 <- data
I0903 05:21:49.579900  1793 net.cpp:338] conv1 -> conv1
I0903 05:21:49.579912  1793 net.cpp:113] Setting up conv1
I0903 05:21:52.959620  1793 net.cpp:120] Top shape: 64 96 55 55 (18585600)
I0903 05:21:52.959666  1793 layer_factory.hpp:74] Creating layer relu1
I0903 05:21:52.959681  1793 net.cpp:84] Creating Layer relu1
I0903 05:21:52.959686  1793 net.cpp:380] relu1 <- conv1
I0903 05:21:52.959695  1793 net.cpp:327] relu1 -> conv1 (in-place)
I0903 05:21:52.959704  1793 net.cpp:113] Setting up relu1
I0903 05:21:52.959844  1793 net.cpp:120] Top shape: 64 96 55 55 (18585600)
I0903 05:21:52.959861  1793 layer_factory.hpp:74] Creating layer norm1
I0903 05:21:52.959877  1793 net.cpp:84] Creating Layer norm1
I0903 05:21:52.959883  1793 net.cpp:380] norm1 <- conv1
I0903 05:21:52.959911  1793 net.cpp:338] norm1 -> norm1
I0903 05:21:52.959923  1793 net.cpp:113] Setting up norm1
I0903 05:21:52.959934  1793 net.cpp:120] Top shape: 64 96 55 55 (18585600)
I0903 05:21:52.959939  1793 layer_factory.hpp:74] Creating layer pool1
I0903 05:21:52.959952  1793 net.cpp:84] Creating Layer pool1
I0903 05:21:52.959957  1793 net.cpp:380] pool1 <- norm1
I0903 05:21:52.959964  1793 net.cpp:338] pool1 -> pool1
I0903 05:21:52.959971  1793 net.cpp:113] Setting up pool1
I0903 05:21:52.960039  1793 net.cpp:120] Top shape: 64 96 27 27 (4478976)
I0903 05:21:52.960047  1793 layer_factory.hpp:74] Creating layer conv2
I0903 05:21:52.960057  1793 net.cpp:84] Creating Layer conv2
I0903 05:21:52.960062  1793 net.cpp:380] conv2 <- pool1
I0903 05:21:52.960069  1793 net.cpp:338] conv2 -> conv2
I0903 05:21:52.960078  1793 net.cpp:113] Setting up conv2
I0903 05:21:52.970268  1793 net.cpp:120] Top shape: 64 256 27 27 (11943936)
I0903 05:21:52.970293  1793 layer_factory.hpp:74] Creating layer relu2
I0903 05:21:52.970301  1793 net.cpp:84] Creating Layer relu2
I0903 05:21:52.970306  1793 net.cpp:380] relu2 <- conv2
I0903 05:21:52.970314  1793 net.cpp:327] relu2 -> conv2 (in-place)
I0903 05:21:52.970320  1793 net.cpp:113] Setting up relu2
I0903 05:21:52.970366  1793 net.cpp:120] Top shape: 64 256 27 27 (11943936)
I0903 05:21:52.970372  1793 layer_factory.hpp:74] Creating layer norm2
I0903 05:21:52.970381  1793 net.cpp:84] Creating Layer norm2
I0903 05:21:52.970386  1793 net.cpp:380] norm2 <- conv2
I0903 05:21:52.970392  1793 net.cpp:338] norm2 -> norm2
I0903 05:21:52.970402  1793 net.cpp:113] Setting up norm2
I0903 05:21:52.970409  1793 net.cpp:120] Top shape: 64 256 27 27 (11943936)
I0903 05:21:52.970413  1793 layer_factory.hpp:74] Creating layer pool2
I0903 05:21:52.970420  1793 net.cpp:84] Creating Layer pool2
I0903 05:21:52.970425  1793 net.cpp:380] pool2 <- norm2
I0903 05:21:52.970432  1793 net.cpp:338] pool2 -> pool2
I0903 05:21:52.970439  1793 net.cpp:113] Setting up pool2
I0903 05:21:52.970566  1793 net.cpp:120] Top shape: 64 256 13 13 (2768896)
I0903 05:21:52.970576  1793 layer_factory.hpp:74] Creating layer conv3
I0903 05:21:52.970585  1793 net.cpp:84] Creating Layer conv3
I0903 05:21:52.970590  1793 net.cpp:380] conv3 <- pool2
I0903 05:21:52.970597  1793 net.cpp:338] conv3 -> conv3
I0903 05:21:52.970607  1793 net.cpp:113] Setting up conv3
I0903 05:21:52.998957  1793 net.cpp:120] Top shape: 64 384 13 13 (4153344)
I0903 05:21:52.998980  1793 layer_factory.hpp:74] Creating layer relu3
I0903 05:21:52.998991  1793 net.cpp:84] Creating Layer relu3
I0903 05:21:52.998996  1793 net.cpp:380] relu3 <- conv3
I0903 05:21:52.999002  1793 net.cpp:327] relu3 -> conv3 (in-place)
I0903 05:21:52.999009  1793 net.cpp:113] Setting up relu3
I0903 05:21:52.999056  1793 net.cpp:120] Top shape: 64 384 13 13 (4153344)
I0903 05:21:52.999063  1793 layer_factory.hpp:74] Creating layer conv4
I0903 05:21:52.999073  1793 net.cpp:84] Creating Layer conv4
I0903 05:21:52.999078  1793 net.cpp:380] conv4 <- conv3
I0903 05:21:52.999085  1793 net.cpp:338] conv4 -> conv4
I0903 05:21:52.999094  1793 net.cpp:113] Setting up conv4
I0903 05:21:53.020689  1793 net.cpp:120] Top shape: 64 384 13 13 (4153344)
I0903 05:21:53.020710  1793 layer_factory.hpp:74] Creating layer relu4
I0903 05:21:53.020720  1793 net.cpp:84] Creating Layer relu4
I0903 05:21:53.020725  1793 net.cpp:380] relu4 <- conv4
I0903 05:21:53.020732  1793 net.cpp:327] relu4 -> conv4 (in-place)
I0903 05:21:53.020740  1793 net.cpp:113] Setting up relu4
I0903 05:21:53.020788  1793 net.cpp:120] Top shape: 64 384 13 13 (4153344)
I0903 05:21:53.020795  1793 layer_factory.hpp:74] Creating layer conv5
I0903 05:21:53.020804  1793 net.cpp:84] Creating Layer conv5
I0903 05:21:53.020809  1793 net.cpp:380] conv5 <- conv4
I0903 05:21:53.020817  1793 net.cpp:338] conv5 -> conv5
I0903 05:21:53.020826  1793 net.cpp:113] Setting up conv5
I0903 05:21:53.035377  1793 net.cpp:120] Top shape: 64 256 13 13 (2768896)
I0903 05:21:53.035400  1793 layer_factory.hpp:74] Creating layer relu5
I0903 05:21:53.035410  1793 net.cpp:84] Creating Layer relu5
I0903 05:21:53.035431  1793 net.cpp:380] relu5 <- conv5
I0903 05:21:53.035439  1793 net.cpp:327] relu5 -> conv5 (in-place)
I0903 05:21:53.035447  1793 net.cpp:113] Setting up relu5
I0903 05:21:53.035501  1793 net.cpp:120] Top shape: 64 256 13 13 (2768896)
I0903 05:21:53.035508  1793 layer_factory.hpp:74] Creating layer pool5
I0903 05:21:53.035518  1793 net.cpp:84] Creating Layer pool5
I0903 05:21:53.035523  1793 net.cpp:380] pool5 <- conv5
I0903 05:21:53.035531  1793 net.cpp:338] pool5 -> pool5
I0903 05:21:53.035539  1793 net.cpp:113] Setting up pool5
I0903 05:21:53.035675  1793 net.cpp:120] Top shape: 64 256 6 6 (589824)
I0903 05:21:53.035691  1793 layer_factory.hpp:74] Creating layer fc6
I0903 05:21:53.035706  1793 net.cpp:84] Creating Layer fc6
I0903 05:21:53.035712  1793 net.cpp:380] fc6 <- pool5
I0903 05:21:53.035720  1793 net.cpp:338] fc6 -> fc6
I0903 05:21:53.035732  1793 net.cpp:113] Setting up fc6
I0903 05:21:54.254524  1793 net.cpp:120] Top shape: 64 4096 (262144)
I0903 05:21:54.254567  1793 layer_factory.hpp:74] Creating layer relu6
I0903 05:21:54.254581  1793 net.cpp:84] Creating Layer relu6
I0903 05:21:54.254588  1793 net.cpp:380] relu6 <- fc6
I0903 05:21:54.254598  1793 net.cpp:327] relu6 -> fc6 (in-place)
I0903 05:21:54.254607  1793 net.cpp:113] Setting up relu6
I0903 05:21:54.254714  1793 net.cpp:120] Top shape: 64 4096 (262144)
I0903 05:21:54.254722  1793 layer_factory.hpp:74] Creating layer drop6
I0903 05:21:54.254740  1793 net.cpp:84] Creating Layer drop6
I0903 05:21:54.254745  1793 net.cpp:380] drop6 <- fc6
I0903 05:21:54.254752  1793 net.cpp:327] drop6 -> fc6 (in-place)
I0903 05:21:54.254765  1793 net.cpp:113] Setting up drop6
I0903 05:21:54.254776  1793 net.cpp:120] Top shape: 64 4096 (262144)
I0903 05:21:54.254781  1793 layer_factory.hpp:74] Creating layer fc7
I0903 05:21:54.254791  1793 net.cpp:84] Creating Layer fc7
I0903 05:21:54.254797  1793 net.cpp:380] fc7 <- fc6
I0903 05:21:54.254804  1793 net.cpp:338] fc7 -> fc7
I0903 05:21:54.254817  1793 net.cpp:113] Setting up fc7
I0903 05:21:54.797727  1793 net.cpp:120] Top shape: 64 4096 (262144)
I0903 05:21:54.797772  1793 layer_factory.hpp:74] Creating layer relu7
I0903 05:21:54.797786  1793 net.cpp:84] Creating Layer relu7
I0903 05:21:54.797796  1793 net.cpp:380] relu7 <- fc7
I0903 05:21:54.797806  1793 net.cpp:327] relu7 -> fc7 (in-place)
I0903 05:21:54.797816  1793 net.cpp:113] Setting up relu7
I0903 05:21:54.797906  1793 net.cpp:120] Top shape: 64 4096 (262144)
I0903 05:21:54.797914  1793 layer_factory.hpp:74] Creating layer drop7
I0903 05:21:54.797922  1793 net.cpp:84] Creating Layer drop7
I0903 05:21:54.797927  1793 net.cpp:380] drop7 <- fc7
I0903 05:21:54.797935  1793 net.cpp:327] drop7 -> fc7 (in-place)
I0903 05:21:54.797942  1793 net.cpp:113] Setting up drop7
I0903 05:21:54.797950  1793 net.cpp:120] Top shape: 64 4096 (262144)
I0903 05:21:54.797955  1793 layer_factory.hpp:74] Creating layer fc8_cloudless
I0903 05:21:54.797966  1793 net.cpp:84] Creating Layer fc8_cloudless
I0903 05:21:54.797969  1793 net.cpp:380] fc8_cloudless <- fc7
I0903 05:21:54.797978  1793 net.cpp:338] fc8_cloudless -> fc8_cloudless
I0903 05:21:54.797991  1793 net.cpp:113] Setting up fc8_cloudless
I0903 05:21:54.798270  1793 net.cpp:120] Top shape: 64 2 (128)
I0903 05:21:54.798295  1793 layer_factory.hpp:74] Creating layer fc8_cloudless_fc8_cloudless_0_split
I0903 05:21:54.798312  1793 net.cpp:84] Creating Layer fc8_cloudless_fc8_cloudless_0_split
I0903 05:21:54.798323  1793 net.cpp:380] fc8_cloudless_fc8_cloudless_0_split <- fc8_cloudless
I0903 05:21:54.798332  1793 net.cpp:338] fc8_cloudless_fc8_cloudless_0_split -> fc8_cloudless_fc8_cloudless_0_split_0
I0903 05:21:54.798341  1793 net.cpp:338] fc8_cloudless_fc8_cloudless_0_split -> fc8_cloudless_fc8_cloudless_0_split_1
I0903 05:21:54.798349  1793 net.cpp:113] Setting up fc8_cloudless_fc8_cloudless_0_split
I0903 05:21:54.798358  1793 net.cpp:120] Top shape: 64 2 (128)
I0903 05:21:54.798363  1793 net.cpp:120] Top shape: 64 2 (128)
I0903 05:21:54.798369  1793 layer_factory.hpp:74] Creating layer accuracy
I0903 05:21:54.799222  1793 net.cpp:84] Creating Layer accuracy
I0903 05:21:54.799238  1793 net.cpp:380] accuracy <- fc8_cloudless_fc8_cloudless_0_split_0
I0903 05:21:54.799245  1793 net.cpp:380] accuracy <- label_data_1_split_0
I0903 05:21:54.799252  1793 net.cpp:338] accuracy -> accuracy
I0903 05:21:54.799262  1793 net.cpp:113] Setting up accuracy
…
I0903 05:21:54.800469  1793 net.cpp:257] The NetState phase (1) differed from the phase (0) specified by a rule in layer data
I0903 05:21:54.800495  1793 net.cpp:257] The NetState phase (1) differed from the phase (0) specified by a rule in layer accuracy
I0903 05:21:54.800695  1793 net.cpp:42] Initializing net from parameters: 
name: "AlexNet"
state {
  phase: TEST
}
layer {
  name: "data"
  type: "Data"
  top: "data"
  top: "label"
  include {
    phase: TEST
  }
  transform_param {
    mirror: false
    crop_size: 227
    mean_file: "data/imagenet/imagenet_mean.binaryproto"
  }
  data_param {
    source: "data/leveldb/validation_leveldb"
    batch_size: 50
  }
}
layer {
  name: "conv1"
  type: "Convolution"
  bottom: "data"
  top: "conv1"
  param {
    lr_mult: 0
    decay_mult: 1
  }
  param {
    lr_mult: 0
    decay_mult: 0
  }
  convolution_param {
    num_output: 96
    kernel_size: 11
    stride: 4
    weight_filler {
      type: "gaussian"
      std: 0.01
    }
    bias_filler {
      type: "constant"
      value: 0
    }
  }
}
layer {
  name: "relu1"
  type: "ReLU"
  bottom: "conv1"
  top: "conv1"
}
layer {
  name: "norm1"
  type: "LRN"
  bottom: "conv1"
  top: "norm1"
  lrn_param {
    local_size: 5
    alpha: 0.0001
    beta: 0.75
  }
}
layer {
  name: "pool1"
  type: "Pooling"
  bottom: "norm1"
  top: "pool1"
  pooling_param {
    pool: MAX
    kernel_size: 3
    stride: 2
  }
}
layer {
  name: "conv2"
  type: "Convolution"
  bottom: "pool1"
  top: "conv2"
  param {
    lr_mult: 0
    decay_mult: 1
  }
  param {
    lr_mult: 0
    decay_mult: 0
  }
  convolution_param {
    num_output: 256
    pad: 2
    kernel_size: 5
    group: 2
    weight_filler {
      type: "gaussian"
      std: 0.01
    }
    bias_filler {
      type: "constant"
      value: 0.1
    }
  }
}
layer {
  name: "relu2"
  type: "ReLU"
  bottom: "conv2"
  top: "conv2"
}
layer {
  name: "norm2"
  type: "LRN"
  bottom: "conv2"
  top: "norm2"
  lrn_param {
    local_size: 5
    alpha: 0.0001
    beta: 0.75
  }
}
layer {
  name: "pool2"
  type: "Pooling"
  bottom: "norm2"
  top: "pool2"
  pooling_param {
    pool: MAX
    kernel_size: 3
    stride: 2
  }
}
layer {
  name: "conv3"
  type: "Convolution"
  bottom: "pool2"
  top: "conv3"
  param {
    lr_mult: 0
    decay_mult: 1
  }
  param {
    lr_mult: 0
    decay_mult: 0
  }
  convolution_param {
    num_output: 384
    pad: 1
    kernel_size: 3
    weight_filler {
      type: "gaussian"
      std: 0.01
    }
    bias_filler {
      type: "constant"
      value: 0
    }
  }
}
layer {
  name: "relu3"
  type: "ReLU"
  bottom: "conv3"
  top: "conv3"
}
layer {
  name: "conv4"
  type: "Convolution"
  bottom: "conv3"
  top: "conv4"
  param {
    lr_mult: 0
    decay_mult: 1
  }
  param {
    lr_mult: 0
    decay_mult: 0
  }
  convolution_param {
    num_output: 384
    pad: 1
    kernel_size: 3
    group: 2
    weight_filler {
      type: "gaussian"
      std: 0.01
    }
    bias_filler {
      type: "constant"
      value: 0.1
    }
  }
}
layer {
  name: "relu4"
  type: "ReLU"
  bottom: "conv4"
  top: "conv4"
}
layer {
  name: "conv5"
  type: "Convolution"
  bottom: "conv4"
  top: "conv5"
  param {
    lr_mult: 0
    decay_mult: 1
  }
  param {
    lr_mult: 0
    decay_mult: 0
  }
  convolution_param {
    num_output: 256
    pad: 1
    kernel_size: 3
    group: 2
    weight_filler {
      type: "gaussian"
      std: 0.01
    }
    bias_filler {
      type: "constant"
      value: 0.1
    }
  }
}
layer {
  name: "relu5"
  type: "ReLU"
  bottom: "conv5"
  top: "conv5"
}
layer {
  name: "pool5"
  type: "Pooling"
  bottom: "conv5"
  top: "pool5"
  pooling_param {
    pool: MAX
    kernel_size: 3
    stride: 2
  }
}
layer {
  name: "fc6"
  type: "InnerProduct"
  bottom: "pool5"
  top: "fc6"
  param {
    lr_mult: 0
    decay_mult: 1
  }
  param {
    lr_mult: 0
    decay_mult: 0
  }
  inner_product_param {
    num_output: 4096
    weight_filler {
      type: "gaussian"
      std: 0.005
    }
    bias_filler {
      type: "constant"
      value: 0.1
    }
  }
}
layer {
  name: "relu6"
  type: "ReLU"
  bottom: "fc6"
  top: "fc6"
}
layer {
  name: "drop6"
  type: "Dropout"
  bottom: "fc6"
  top: "fc6"
  dropout_param {
    dropout_ratio: 0.5
  }
}
layer {
  name: "fc7"
  type: "InnerProduct"
  bottom: "fc6"
  top: "fc7"
  param {
    lr_mult: 1
    decay_mult: 1
  }
  param {
    lr_mult: 2
    decay_mult: 0
  }
  inner_product_param {
    num_output: 4096
    weight_filler {
      type: "gaussian"
      std: 0.005
    }
    bias_filler {
      type: "constant"
      value: 0.1
    }
  }
}
layer {
  name: "relu7"
  type: "ReLU"
  bottom: "fc7"
  top: "fc7"
}
layer {
  name: "drop7"
  type: "Dropout"
  bottom: "fc7"
  top: "fc7"
  dropout_param {
    dropout_ratio: 0.5
  }
}
layer {
  name: "fc8_cloudless"
  type: "InnerProduct"
  bottom: "fc7"
  top: "fc8_cloudless"
  param {
    lr_mult: 1
    decay_mult: 1
  }
  param {
    lr_mult: 2
    decay_mult: 0
  }
  inner_product_param {
    num_output: 2
    weight_filler {
      type: "gaussian"
      std: 0.01
    }
    bias_filler {
      type: "constant"
      value: 0
    }
  }
}
layer {
  name: "accuracy"
  type: "Accuracy"
  bottom: "fc8_cloudless"
  bottom: "label"
  top: "accuracy"
  include {
    phase: TEST
  }
}
layer {
  name: "loss"
  type: "SoftmaxWithLoss"
  bottom: "fc8_cloudless"
  bottom: "label"
  top: "loss"
}
I0903 05:21:54.800833  1793 layer_factory.hpp:74] Creating layer data
I0903 05:21:54.800845  1793 net.cpp:84] Creating Layer data
I0903 05:21:54.800853  1793 net.cpp:338] data -> data
I0903 05:21:54.800863  1793 net.cpp:338] data -> label
I0903 05:21:54.800871  1793 net.cpp:113] Setting up data
I0903 05:21:56.714856  1793 db.cpp:20] Opened leveldb data/leveldb/validation_leveldb
I0903 05:21:56.715376  1793 data_layer.cpp:67] output data size: 50,3,227,227
I0903 05:21:56.715397  1793 data_transformer.cpp:22] Loading mean file from: data/imagenet/imagenet_mean.binaryproto
I0903 05:21:56.719987  1793 net.cpp:120] Top shape: 50 3 227 227 (7729350)
I0903 05:21:56.720021  1793 net.cpp:120] Top shape: 50 (50)
I0903 05:21:56.720031  1793 layer_factory.hpp:74] Creating layer label_data_1_split
I0903 05:21:56.720046  1793 net.cpp:84] Creating Layer label_data_1_split
I0903 05:21:56.720052  1793 net.cpp:380] label_data_1_split <- label
I0903 05:21:56.720062  1793 net.cpp:338] label_data_1_split -> label_data_1_split_0
I0903 05:21:56.720077  1793 net.cpp:338] label_data_1_split -> label_data_1_split_1
I0903 05:21:56.720083  1793 net.cpp:113] Setting up label_data_1_split
I0903 05:21:56.720093  1793 net.cpp:120] Top shape: 50 (50)
I0903 05:21:56.720099  1793 net.cpp:120] Top shape: 50 (50)
I0903 05:21:56.720104  1793 layer_factory.hpp:74] Creating layer conv1
I0903 05:21:56.720116  1793 net.cpp:84] Creating Layer conv1
I0903 05:21:56.720123  1793 net.cpp:380] conv1 <- data
I0903 05:21:56.720131  1793 net.cpp:338] conv1 -> conv1
I0903 05:21:56.720140  1793 net.cpp:113] Setting up conv1
I0903 05:21:56.721617  1793 net.cpp:120] Top shape: 50 96 55 55 (14520000)
I0903 05:21:56.721644  1793 layer_factory.hpp:74] Creating layer relu1
I0903 05:21:56.721653  1793 net.cpp:84] Creating Layer relu1
I0903 05:21:56.721658  1793 net.cpp:380] relu1 <- conv1
I0903 05:21:56.721665  1793 net.cpp:327] relu1 -> conv1 (in-place)
I0903 05:21:56.721673  1793 net.cpp:113] Setting up relu1
I0903 05:21:56.721806  1793 net.cpp:120] Top shape: 50 96 55 55 (14520000)
I0903 05:21:56.721814  1793 layer_factory.hpp:74] Creating layer norm1
I0903 05:21:56.721827  1793 net.cpp:84] Creating Layer norm1
I0903 05:21:56.721832  1793 net.cpp:380] norm1 <- conv1
I0903 05:21:56.721839  1793 net.cpp:338] norm1 -> norm1
I0903 05:21:56.721848  1793 net.cpp:113] Setting up norm1
I0903 05:21:56.721855  1793 net.cpp:120] Top shape: 50 96 55 55 (14520000)
I0903 05:21:56.721861  1793 layer_factory.hpp:74] Creating layer pool1
I0903 05:21:56.721869  1793 net.cpp:84] Creating Layer pool1
I0903 05:21:56.721874  1793 net.cpp:380] pool1 <- norm1
I0903 05:21:56.721880  1793 net.cpp:338] pool1 -> pool1
I0903 05:21:56.721889  1793 net.cpp:113] Setting up pool1
I0903 05:21:56.721942  1793 net.cpp:120] Top shape: 50 96 27 27 (3499200)
I0903 05:21:56.721949  1793 layer_factory.hpp:74] Creating layer conv2
I0903 05:21:56.721959  1793 net.cpp:84] Creating Layer conv2
I0903 05:21:56.721963  1793 net.cpp:380] conv2 <- pool1
I0903 05:21:56.721971  1793 net.cpp:338] conv2 -> conv2
I0903 05:21:56.721979  1793 net.cpp:113] Setting up conv2
I0903 05:21:56.732281  1793 net.cpp:120] Top shape: 50 256 27 27 (9331200)
I0903 05:21:56.732329  1793 layer_factory.hpp:74] Creating layer relu2
I0903 05:21:56.732341  1793 net.cpp:84] Creating Layer relu2
I0903 05:21:56.732345  1793 net.cpp:380] relu2 <- conv2
I0903 05:21:56.732354  1793 net.cpp:327] relu2 -> conv2 (in-place)
I0903 05:21:56.732362  1793 net.cpp:113] Setting up relu2
I0903 05:21:56.732414  1793 net.cpp:120] Top shape: 50 256 27 27 (9331200)
I0903 05:21:56.732420  1793 layer_factory.hpp:74] Creating layer norm2
I0903 05:21:56.732431  1793 net.cpp:84] Creating Layer norm2
I0903 05:21:56.732435  1793 net.cpp:380] norm2 <- conv2
I0903 05:21:56.732442  1793 net.cpp:338] norm2 -> norm2
I0903 05:21:56.732452  1793 net.cpp:113] Setting up norm2
I0903 05:21:56.732460  1793 net.cpp:120] Top shape: 50 256 27 27 (9331200)
I0903 05:21:56.732465  1793 layer_factory.hpp:74] Creating layer pool2
I0903 05:21:56.732473  1793 net.cpp:84] Creating Layer pool2
I0903 05:21:56.732480  1793 net.cpp:380] pool2 <- norm2
I0903 05:21:56.732486  1793 net.cpp:338] pool2 -> pool2
I0903 05:21:56.732493  1793 net.cpp:113] Setting up pool2
I0903 05:21:56.732547  1793 net.cpp:120] Top shape: 50 256 13 13 (2163200)
I0903 05:21:56.732554  1793 layer_factory.hpp:74] Creating layer conv3
I0903 05:21:56.732563  1793 net.cpp:84] Creating Layer conv3
I0903 05:21:56.732568  1793 net.cpp:380] conv3 <- pool2
I0903 05:21:56.732576  1793 net.cpp:338] conv3 -> conv3
I0903 05:21:56.732584  1793 net.cpp:113] Setting up conv3
I0903 05:21:56.761209  1793 net.cpp:120] Top shape: 50 384 13 13 (3244800)
I0903 05:21:56.761260  1793 layer_factory.hpp:74] Creating layer relu3
I0903 05:21:56.761276  1793 net.cpp:84] Creating Layer relu3
I0903 05:21:56.761282  1793 net.cpp:380] relu3 <- conv3
I0903 05:21:56.761291  1793 net.cpp:327] relu3 -> conv3 (in-place)
I0903 05:21:56.761299  1793 net.cpp:113] Setting up relu3
I0903 05:21:56.761432  1793 net.cpp:120] Top shape: 50 384 13 13 (3244800)
I0903 05:21:56.761450  1793 layer_factory.hpp:74] Creating layer conv4
I0903 05:21:56.761462  1793 net.cpp:84] Creating Layer conv4
I0903 05:21:56.761468  1793 net.cpp:380] conv4 <- conv3
I0903 05:21:56.761476  1793 net.cpp:338] conv4 -> conv4
I0903 05:21:56.761487  1793 net.cpp:113] Setting up conv4
I0903 05:21:56.783102  1793 net.cpp:120] Top shape: 50 384 13 13 (3244800)
I0903 05:21:56.783124  1793 layer_factory.hpp:74] Creating layer relu4
I0903 05:21:56.783133  1793 net.cpp:84] Creating Layer relu4
I0903 05:21:56.783139  1793 net.cpp:380] relu4 <- conv4
I0903 05:21:56.783146  1793 net.cpp:327] relu4 -> conv4 (in-place)
I0903 05:21:56.783154  1793 net.cpp:113] Setting up relu4
I0903 05:21:56.783206  1793 net.cpp:120] Top shape: 50 384 13 13 (3244800)
I0903 05:21:56.783213  1793 layer_factory.hpp:74] Creating layer conv5
I0903 05:21:56.783223  1793 net.cpp:84] Creating Layer conv5
I0903 05:21:56.783228  1793 net.cpp:380] conv5 <- conv4
I0903 05:21:56.783236  1793 net.cpp:338] conv5 -> conv5
I0903 05:21:56.783244  1793 net.cpp:113] Setting up conv5
I0903 05:21:56.797814  1793 net.cpp:120] Top shape: 50 256 13 13 (2163200)
I0903 05:21:56.797839  1793 layer_factory.hpp:74] Creating layer relu5
I0903 05:21:56.797848  1793 net.cpp:84] Creating Layer relu5
I0903 05:21:56.797853  1793 net.cpp:380] relu5 <- conv5
I0903 05:21:56.797860  1793 net.cpp:327] relu5 -> conv5 (in-place)
I0903 05:21:56.797868  1793 net.cpp:113] Setting up relu5
I0903 05:21:56.797916  1793 net.cpp:120] Top shape: 50 256 13 13 (2163200)
I0903 05:21:56.797924  1793 layer_factory.hpp:74] Creating layer pool5
I0903 05:21:56.797935  1793 net.cpp:84] Creating Layer pool5
I0903 05:21:56.797940  1793 net.cpp:380] pool5 <- conv5
I0903 05:21:56.797947  1793 net.cpp:338] pool5 -> pool5
I0903 05:21:56.797955  1793 net.cpp:113] Setting up pool5
I0903 05:21:56.798107  1793 net.cpp:120] Top shape: 50 256 6 6 (460800)
I0903 05:21:56.798125  1793 layer_factory.hpp:74] Creating layer fc6
I0903 05:21:56.798135  1793 net.cpp:84] Creating Layer fc6
I0903 05:21:56.798141  1793 net.cpp:380] fc6 <- pool5
I0903 05:21:56.798149  1793 net.cpp:338] fc6 -> fc6
I0903 05:21:56.798187  1793 net.cpp:113] Setting up fc6
I0903 05:21:58.022058  1793 net.cpp:120] Top shape: 50 4096 (204800)
I0903 05:21:58.022102  1793 layer_factory.hpp:74] Creating layer relu6
I0903 05:21:58.022116  1793 net.cpp:84] Creating Layer relu6
I0903 05:21:58.022122  1793 net.cpp:380] relu6 <- fc6
I0903 05:21:58.022132  1793 net.cpp:327] relu6 -> fc6 (in-place)
I0903 05:21:58.022141  1793 net.cpp:113] Setting up relu6
I0903 05:21:58.022233  1793 net.cpp:120] Top shape: 50 4096 (204800)
I0903 05:21:58.022239  1793 layer_factory.hpp:74] Creating layer drop6
I0903 05:21:58.022248  1793 net.cpp:84] Creating Layer drop6
I0903 05:21:58.022253  1793 net.cpp:380] drop6 <- fc6
I0903 05:21:58.022261  1793 net.cpp:327] drop6 -> fc6 (in-place)
I0903 05:21:58.022269  1793 net.cpp:113] Setting up drop6
I0903 05:21:58.022275  1793 net.cpp:120] Top shape: 50 4096 (204800)
I0903 05:21:58.022280  1793 layer_factory.hpp:74] Creating layer fc7
I0903 05:21:58.022290  1793 net.cpp:84] Creating Layer fc7
I0903 05:21:58.022294  1793 net.cpp:380] fc7 <- fc6
I0903 05:21:58.022302  1793 net.cpp:338] fc7 -> fc7
I0903 05:21:58.022312  1793 net.cpp:113] Setting up fc7
I0903 05:21:58.567741  1793 net.cpp:120] Top shape: 50 4096 (204800)
I0903 05:21:58.567786  1793 layer_factory.hpp:74] Creating layer relu7
I0903 05:21:58.567801  1793 net.cpp:84] Creating Layer relu7
I0903 05:21:58.567807  1793 net.cpp:380] relu7 <- fc7
I0903 05:21:58.567817  1793 net.cpp:327] relu7 -> fc7 (in-place)
I0903 05:21:58.567826  1793 net.cpp:113] Setting up relu7
I0903 05:21:58.567919  1793 net.cpp:120] Top shape: 50 4096 (204800)
I0903 05:21:58.567927  1793 layer_factory.hpp:74] Creating layer drop7
I0903 05:21:58.567936  1793 net.cpp:84] Creating Layer drop7
I0903 05:21:58.567941  1793 net.cpp:380] drop7 <- fc7
I0903 05:21:58.567948  1793 net.cpp:327] drop7 -> fc7 (in-place)
I0903 05:21:58.567955  1793 net.cpp:113] Setting up drop7
I0903 05:21:58.567963  1793 net.cpp:120] Top shape: 50 4096 (204800)
I0903 05:21:58.567968  1793 layer_factory.hpp:74] Creating layer fc8_cloudless
I0903 05:21:58.567978  1793 net.cpp:84] Creating Layer fc8_cloudless
I0903 05:21:58.567983  1793 net.cpp:380] fc8_cloudless <- fc7
I0903 05:21:58.567992  1793 net.cpp:338] fc8_cloudless -> fc8_cloudless
I0903 05:21:58.568007  1793 net.cpp:113] Setting up fc8_cloudless
I0903 05:21:58.568284  1793 net.cpp:120] Top shape: 50 2 (100)
I0903 05:21:58.568300  1793 layer_factory.hpp:74] Creating layer fc8_cloudless_fc8_cloudless_0_split
I0903 05:21:58.568310  1793 net.cpp:84] Creating Layer fc8_cloudless_fc8_cloudless_0_split
I0903 05:21:58.568315  1793 net.cpp:380] fc8_cloudless_fc8_cloudless_0_split <- fc8_cloudless
I0903 05:21:58.568321  1793 net.cpp:338] fc8_cloudless_fc8_cloudless_0_split -> fc8_cloudless_fc8_cloudless_0_split_0
I0903 05:21:58.568331  1793 net.cpp:338] fc8_cloudless_fc8_cloudless_0_split -> fc8_cloudless_fc8_cloudless_0_split_1
I0903 05:21:58.568337  1793 net.cpp:113] Setting up fc8_cloudless_fc8_cloudless_0_split
I0903 05:21:58.568346  1793 net.cpp:120] Top shape: 50 2 (100)
I0903 05:21:58.568351  1793 net.cpp:120] Top shape: 50 2 (100)
I0903 05:21:58.568356  1793 layer_factory.hpp:74] Creating layer accuracy
I0903 05:21:58.568363  1793 net.cpp:84] Creating Layer accuracy
I0903 05:21:58.568368  1793 net.cpp:380] accuracy <- fc8_cloudless_fc8_cloudless_0_split_0
I0903 05:21:58.568373  1793 net.cpp:380] accuracy <- label_data_1_split_0
I0903 05:21:58.568382  1793 net.cpp:338] accuracy -> accuracy
I0903 05:21:58.568388  1793 net.cpp:113] Setting up accuracy
…
