…
I1216 06:21:05.029218  3885 net.cpp:257] The NetState phase (0) differed from the phase (1) specified by a rule in layer data
I1216 06:21:05.029259  3885 net.cpp:257] The NetState phase (0) differed from the phase (1) specified by a rule in layer accuracy
I1216 06:21:05.029482  3885 net.cpp:42] Initializing net from parameters: 
name: "AlexNet"
state {
  phase: TRAIN
}
layer {
  name: "data"
  type: "Data"
  top: "data"
  top: "label"
  include {
    phase: TRAIN
  }
  transform_param {
    mirror: true
    crop_size: 227
    mean_file: "data/imagenet/imagenet_mean.binaryproto"
  }
  data_param {
    source: "data/leveldb/train_leveldb"
    batch_size: 64
  }
}
layer {
  name: "conv1"
  type: "Convolution"
  bottom: "data"
  top: "conv1"
  param {
    lr_mult: 0
    decay_mult: 1
  }
  param {
    lr_mult: 0
    decay_mult: 0
  }
  convolution_param {
    num_output: 96
    kernel_size: 11
    stride: 4
    weight_filler {
      type: "gaussian"
      std: 0.01
    }
    bias_filler {
      type: "constant"
      value: 0
    }
  }
}
layer {
  name: "relu1"
  type: "ReLU"
  bottom: "conv1"
  top: "conv1"
}
layer {
  name: "norm1"
  type: "LRN"
  bottom: "conv1"
  top: "norm1"
  lrn_param {
    local_size: 5
    alpha: 0.0001
    beta: 0.75
  }
}
layer {
  name: "pool1"
  type: "Pooling"
  bottom: "norm1"
  top: "pool1"
  pooling_param {
    pool: MAX
    kernel_size: 3
    stride: 2
  }
}
layer {
  name: "conv2"
  type: "Convolution"
  bottom: "pool1"
  top: "conv2"
  param {
    lr_mult: 0
    decay_mult: 1
  }
  param {
    lr_mult: 0
    decay_mult: 0
  }
  convolution_param {
    num_output: 256
    pad: 2
    kernel_size: 5
    group: 2
    weight_filler {
      type: "gaussian"
      std: 0.01
    }
    bias_filler {
      type: "constant"
      value: 0.1
    }
  }
}
layer {
  name: "relu2"
  type: "ReLU"
  bottom: "conv2"
  top: "conv2"
}
layer {
  name: "norm2"
  type: "LRN"
  bottom: "conv2"
  top: "norm2"
  lrn_param {
    local_size: 5
    alpha: 0.0001
    beta: 0.75
  }
}
layer {
  name: "pool2"
  type: "Pooling"
  bottom: "norm2"
  top: "pool2"
  pooling_param {
    pool: MAX
    kernel_size: 3
    stride: 2
  }
}
layer {
  name: "conv3"
  type: "Convolution"
  bottom: "pool2"
  top: "conv3"
  param {
    lr_mult: 0
    decay_mult: 1
  }
  param {
    lr_mult: 0
    decay_mult: 0
  }
  convolution_param {
    num_output: 384
    pad: 1
    kernel_size: 3
    weight_filler {
      type: "gaussian"
      std: 0.01
    }
    bias_filler {
      type: "constant"
      value: 0
    }
  }
}
layer {
  name: "relu3"
  type: "ReLU"
  bottom: "conv3"
  top: "conv3"
}
layer {
  name: "conv4"
  type: "Convolution"
  bottom: "conv3"
  top: "conv4"
  param {
    lr_mult: 0
    decay_mult: 1
  }
  param {
    lr_mult: 0
    decay_mult: 0
  }
  convolution_param {
    num_output: 384
    pad: 1
    kernel_size: 3
    group: 2
    weight_filler {
      type: "gaussian"
      std: 0.01
    }
    bias_filler {
      type: "constant"
      value: 0.1
    }
  }
}
layer {
  name: "relu4"
  type: "ReLU"
  bottom: "conv4"
  top: "conv4"
}
layer {
  name: "conv5"
  type: "Convolution"
  bottom: "conv4"
  top: "conv5"
  param {
    lr_mult: 0
    decay_mult: 1
  }
  param {
    lr_mult: 0
    decay_mult: 0
  }
  convolution_param {
    num_output: 256
    pad: 1
    kernel_size: 3
    group: 2
    weight_filler {
      type: "gaussian"
      std: 0.01
    }
    bias_filler {
      type: "constant"
      value: 0.1
    }
  }
}
layer {
  name: "relu5"
  type: "ReLU"
  bottom: "conv5"
  top: "conv5"
}
layer {
  name: "pool5"
  type: "Pooling"
  bottom: "conv5"
  top: "pool5"
  pooling_param {
    pool: MAX
    kernel_size: 3
    stride: 2
  }
}
layer {
  name: "fc6"
  type: "InnerProduct"
  bottom: "pool5"
  top: "fc6"
  param {
    lr_mult: 0
    decay_mult: 1
  }
  param {
    lr_mult: 0
    decay_mult: 0
  }
  inner_product_param {
    num_output: 4096
    weight_filler {
      type: "gaussian"
      std: 0.005
    }
    bias_filler {
      type: "constant"
      value: 0.1
    }
  }
}
layer {
  name: "relu6"
  type: "ReLU"
  bottom: "fc6"
  top: "fc6"
}
layer {
  name: "drop6"
  type: "Dropout"
  bottom: "fc6"
  top: "fc6"
  dropout_param {
    dropout_ratio: 0.5
  }
}
layer {
  name: "fc7"
  type: "InnerProduct"
  bottom: "fc6"
  top: "fc7"
  param {
    lr_mult: 1
    decay_mult: 1
  }
  param {
    lr_mult: 2
    decay_mult: 0
  }
  inner_product_param {
    num_output: 4096
    weight_filler {
      type: "gaussian"
      std: 0.005
    }
    bias_filler {
      type: "constant"
      value: 0.1
    }
  }
}
layer {
  name: "relu7"
  type: "ReLU"
  bottom: "fc7"
  top: "fc7"
}
layer {
  name: "drop7"
  type: "Dropout"
  bottom: "fc7"
  top: "fc7"
  dropout_param {
    dropout_ratio: 0.5
  }
}
layer {
  name: "fc8_cloudless"
  type: "InnerProduct"
  bottom: "fc7"
  top: "fc8_cloudless"
  param {
    lr_mult: 1
    decay_mult: 1
  }
  param {
    lr_mult: 2
    decay_mult: 0
  }
  inner_product_param {
    num_output: 2
    weight_filler {
      type: "gaussian"
      std: 0.01
    }
    bias_filler {
      type: "constant"
      value: 0
    }
  }
}
layer {
  name: "accuracy"
  type: "Accuracy"
  bottom: "fc8_cloudless"
  bottom: "label"
  top: "accuracy"
  include {
    phase: TRAIN
  }
}
layer {
  name: "loss"
  type: "SoftmaxWithLoss"
  bottom: "fc8_cloudless"
  bottom: "label"
  top: "loss"
}
I1216 06:21:05.029688  3885 layer_factory.hpp:74] Creating layer data
I1216 06:21:05.029719  3885 net.cpp:84] Creating Layer data
I1216 06:21:05.029731  3885 net.cpp:338] data -> data
I1216 06:21:05.029775  3885 net.cpp:338] data -> label
I1216 06:21:05.029790  3885 net.cpp:113] Setting up data
I1216 06:21:05.038180  3885 db.cpp:20] Opened leveldb data/leveldb/train_leveldb
I1216 06:21:05.039110  3885 data_layer.cpp:67] output data size: 64,3,227,227
I1216 06:21:05.039134  3885 data_transformer.cpp:22] Loading mean file from: data/imagenet/imagenet_mean.binaryproto
I1216 06:21:05.050896  3885 net.cpp:120] Top shape: 64 3 227 227 (9893568)
I1216 06:21:05.050930  3885 net.cpp:120] Top shape: 64 (64)
I1216 06:21:05.050941  3885 layer_factory.hpp:74] Creating layer label_data_1_split
I1216 06:21:05.050956  3885 net.cpp:84] Creating Layer label_data_1_split
I1216 06:21:05.050963  3885 net.cpp:380] label_data_1_split <- label
I1216 06:21:05.050978  3885 net.cpp:338] label_data_1_split -> label_data_1_split_0
I1216 06:21:05.050992  3885 net.cpp:338] label_data_1_split -> label_data_1_split_1
I1216 06:21:05.050999  3885 net.cpp:113] Setting up label_data_1_split
I1216 06:21:05.051013  3885 net.cpp:120] Top shape: 64 (64)
I1216 06:21:05.051020  3885 net.cpp:120] Top shape: 64 (64)
I1216 06:21:05.051025  3885 layer_factory.hpp:74] Creating layer conv1
I1216 06:21:05.051040  3885 net.cpp:84] Creating Layer conv1
I1216 06:21:05.051046  3885 net.cpp:380] conv1 <- data
I1216 06:21:05.051054  3885 net.cpp:338] conv1 -> conv1
I1216 06:21:05.051066  3885 net.cpp:113] Setting up conv1
I1216 06:21:05.105432  3885 net.cpp:120] Top shape: 64 96 55 55 (18585600)
I1216 06:21:05.105485  3885 layer_factory.hpp:74] Creating layer relu1
I1216 06:21:05.105505  3885 net.cpp:84] Creating Layer relu1
I1216 06:21:05.105515  3885 net.cpp:380] relu1 <- conv1
I1216 06:21:05.105530  3885 net.cpp:327] relu1 -> conv1 (in-place)
I1216 06:21:05.105545  3885 net.cpp:113] Setting up relu1
I1216 06:21:05.105746  3885 net.cpp:120] Top shape: 64 96 55 55 (18585600)
I1216 06:21:05.105787  3885 layer_factory.hpp:74] Creating layer norm1
I1216 06:21:05.105810  3885 net.cpp:84] Creating Layer norm1
I1216 06:21:05.105821  3885 net.cpp:380] norm1 <- conv1
I1216 06:21:05.105877  3885 net.cpp:338] norm1 -> norm1
I1216 06:21:05.105895  3885 net.cpp:113] Setting up norm1
I1216 06:21:05.105913  3885 net.cpp:120] Top shape: 64 96 55 55 (18585600)
I1216 06:21:05.105922  3885 layer_factory.hpp:74] Creating layer pool1
I1216 06:21:05.105948  3885 net.cpp:84] Creating Layer pool1
I1216 06:21:05.105967  3885 net.cpp:380] pool1 <- norm1
I1216 06:21:05.105978  3885 net.cpp:338] pool1 -> pool1
I1216 06:21:05.105994  3885 net.cpp:113] Setting up pool1
I1216 06:21:05.106125  3885 net.cpp:120] Top shape: 64 96 27 27 (4478976)
I1216 06:21:05.106138  3885 layer_factory.hpp:74] Creating layer conv2
I1216 06:21:05.106155  3885 net.cpp:84] Creating Layer conv2
I1216 06:21:05.106174  3885 net.cpp:380] conv2 <- pool1
I1216 06:21:05.106189  3885 net.cpp:338] conv2 -> conv2
I1216 06:21:05.106212  3885 net.cpp:113] Setting up conv2
I1216 06:21:05.117389  3885 net.cpp:120] Top shape: 64 256 27 27 (11943936)
I1216 06:21:05.117420  3885 layer_factory.hpp:74] Creating layer relu2
I1216 06:21:05.117430  3885 net.cpp:84] Creating Layer relu2
I1216 06:21:05.117436  3885 net.cpp:380] relu2 <- conv2
I1216 06:21:05.117444  3885 net.cpp:327] relu2 -> conv2 (in-place)
I1216 06:21:05.117451  3885 net.cpp:113] Setting up relu2
I1216 06:21:05.117524  3885 net.cpp:120] Top shape: 64 256 27 27 (11943936)
I1216 06:21:05.117537  3885 layer_factory.hpp:74] Creating layer norm2
I1216 06:21:05.117555  3885 net.cpp:84] Creating Layer norm2
I1216 06:21:05.117564  3885 net.cpp:380] norm2 <- conv2
I1216 06:21:05.117576  3885 net.cpp:338] norm2 -> norm2
I1216 06:21:05.117591  3885 net.cpp:113] Setting up norm2
I1216 06:21:05.117607  3885 net.cpp:120] Top shape: 64 256 27 27 (11943936)
I1216 06:21:05.117615  3885 layer_factory.hpp:74] Creating layer pool2
I1216 06:21:05.117629  3885 net.cpp:84] Creating Layer pool2
I1216 06:21:05.117635  3885 net.cpp:380] pool2 <- norm2
I1216 06:21:05.117641  3885 net.cpp:338] pool2 -> pool2
I1216 06:21:05.117648  3885 net.cpp:113] Setting up pool2
I1216 06:21:05.117800  3885 net.cpp:120] Top shape: 64 256 13 13 (2768896)
I1216 06:21:05.117811  3885 layer_factory.hpp:74] Creating layer conv3
I1216 06:21:05.117823  3885 net.cpp:84] Creating Layer conv3
I1216 06:21:05.117828  3885 net.cpp:380] conv3 <- pool2
I1216 06:21:05.117835  3885 net.cpp:338] conv3 -> conv3
I1216 06:21:05.117844  3885 net.cpp:113] Setting up conv3
I1216 06:21:05.147496  3885 net.cpp:120] Top shape: 64 384 13 13 (4153344)
I1216 06:21:05.147533  3885 layer_factory.hpp:74] Creating layer relu3
I1216 06:21:05.147546  3885 net.cpp:84] Creating Layer relu3
I1216 06:21:05.147552  3885 net.cpp:380] relu3 <- conv3
I1216 06:21:05.147570  3885 net.cpp:327] relu3 -> conv3 (in-place)
I1216 06:21:05.147579  3885 net.cpp:113] Setting up relu3
I1216 06:21:05.147639  3885 net.cpp:120] Top shape: 64 384 13 13 (4153344)
I1216 06:21:05.147651  3885 layer_factory.hpp:74] Creating layer conv4
I1216 06:21:05.147661  3885 net.cpp:84] Creating Layer conv4
I1216 06:21:05.147666  3885 net.cpp:380] conv4 <- conv3
I1216 06:21:05.147675  3885 net.cpp:338] conv4 -> conv4
I1216 06:21:05.147685  3885 net.cpp:113] Setting up conv4
I1216 06:21:05.169781  3885 net.cpp:120] Top shape: 64 384 13 13 (4153344)
I1216 06:21:05.169811  3885 layer_factory.hpp:74] Creating layer relu4
I1216 06:21:05.169826  3885 net.cpp:84] Creating Layer relu4
I1216 06:21:05.169834  3885 net.cpp:380] relu4 <- conv4
I1216 06:21:05.169849  3885 net.cpp:327] relu4 -> conv4 (in-place)
I1216 06:21:05.169863  3885 net.cpp:113] Setting up relu4
I1216 06:21:05.169952  3885 net.cpp:120] Top shape: 64 384 13 13 (4153344)
I1216 06:21:05.169965  3885 layer_factory.hpp:74] Creating layer conv5
I1216 06:21:05.169981  3885 net.cpp:84] Creating Layer conv5
I1216 06:21:05.169991  3885 net.cpp:380] conv5 <- conv4
I1216 06:21:05.170003  3885 net.cpp:338] conv5 -> conv5
I1216 06:21:05.170018  3885 net.cpp:113] Setting up conv5
I1216 06:21:05.185438  3885 net.cpp:120] Top shape: 64 256 13 13 (2768896)
I1216 06:21:05.185472  3885 layer_factory.hpp:74] Creating layer relu5
I1216 06:21:05.185482  3885 net.cpp:84] Creating Layer relu5
I1216 06:21:05.185516  3885 net.cpp:380] relu5 <- conv5
I1216 06:21:05.185524  3885 net.cpp:327] relu5 -> conv5 (in-place)
I1216 06:21:05.185533  3885 net.cpp:113] Setting up relu5
I1216 06:21:05.185593  3885 net.cpp:120] Top shape: 64 256 13 13 (2768896)
I1216 06:21:05.185600  3885 layer_factory.hpp:74] Creating layer pool5
I1216 06:21:05.185614  3885 net.cpp:84] Creating Layer pool5
I1216 06:21:05.185619  3885 net.cpp:380] pool5 <- conv5
I1216 06:21:05.185632  3885 net.cpp:338] pool5 -> pool5
I1216 06:21:05.185642  3885 net.cpp:113] Setting up pool5
I1216 06:21:05.185804  3885 net.cpp:120] Top shape: 64 256 6 6 (589824)
I1216 06:21:05.185817  3885 layer_factory.hpp:74] Creating layer fc6
I1216 06:21:05.185928  3885 net.cpp:84] Creating Layer fc6
I1216 06:21:05.185937  3885 net.cpp:380] fc6 <- pool5
I1216 06:21:05.185945  3885 net.cpp:338] fc6 -> fc6
I1216 06:21:05.185968  3885 net.cpp:113] Setting up fc6
I1216 06:21:06.452502  3885 net.cpp:120] Top shape: 64 4096 (262144)
I1216 06:21:06.452550  3885 layer_factory.hpp:74] Creating layer relu6
I1216 06:21:06.452567  3885 net.cpp:84] Creating Layer relu6
I1216 06:21:06.452574  3885 net.cpp:380] relu6 <- fc6
I1216 06:21:06.452581  3885 net.cpp:327] relu6 -> fc6 (in-place)
I1216 06:21:06.452590  3885 net.cpp:113] Setting up relu6
I1216 06:21:06.452687  3885 net.cpp:120] Top shape: 64 4096 (262144)
I1216 06:21:06.452693  3885 layer_factory.hpp:74] Creating layer drop6
I1216 06:21:06.452707  3885 net.cpp:84] Creating Layer drop6
I1216 06:21:06.452711  3885 net.cpp:380] drop6 <- fc6
I1216 06:21:06.452719  3885 net.cpp:327] drop6 -> fc6 (in-place)
I1216 06:21:06.452730  3885 net.cpp:113] Setting up drop6
I1216 06:21:06.452741  3885 net.cpp:120] Top shape: 64 4096 (262144)
I1216 06:21:06.452746  3885 layer_factory.hpp:74] Creating layer fc7
I1216 06:21:06.452755  3885 net.cpp:84] Creating Layer fc7
I1216 06:21:06.452759  3885 net.cpp:380] fc7 <- fc6
I1216 06:21:06.452769  3885 net.cpp:338] fc7 -> fc7
I1216 06:21:06.452778  3885 net.cpp:113] Setting up fc7
I1216 06:21:07.048400  3885 net.cpp:120] Top shape: 64 4096 (262144)
I1216 06:21:07.048449  3885 layer_factory.hpp:74] Creating layer relu7
I1216 06:21:07.048465  3885 net.cpp:84] Creating Layer relu7
I1216 06:21:07.048472  3885 net.cpp:380] relu7 <- fc7
I1216 06:21:07.048480  3885 net.cpp:327] relu7 -> fc7 (in-place)
I1216 06:21:07.048491  3885 net.cpp:113] Setting up relu7
I1216 06:21:07.048585  3885 net.cpp:120] Top shape: 64 4096 (262144)
I1216 06:21:07.048593  3885 layer_factory.hpp:74] Creating layer drop7
I1216 06:21:07.048604  3885 net.cpp:84] Creating Layer drop7
I1216 06:21:07.048609  3885 net.cpp:380] drop7 <- fc7
I1216 06:21:07.048616  3885 net.cpp:327] drop7 -> fc7 (in-place)
I1216 06:21:07.048624  3885 net.cpp:113] Setting up drop7
I1216 06:21:07.048631  3885 net.cpp:120] Top shape: 64 4096 (262144)
I1216 06:21:07.048635  3885 layer_factory.hpp:74] Creating layer fc8_cloudless
I1216 06:21:07.048645  3885 net.cpp:84] Creating Layer fc8_cloudless
I1216 06:21:07.048650  3885 net.cpp:380] fc8_cloudless <- fc7
I1216 06:21:07.048657  3885 net.cpp:338] fc8_cloudless -> fc8_cloudless
I1216 06:21:07.048671  3885 net.cpp:113] Setting up fc8_cloudless
I1216 06:21:07.048957  3885 net.cpp:120] Top shape: 64 2 (128)
I1216 06:21:07.048974  3885 layer_factory.hpp:74] Creating layer fc8_cloudless_fc8_cloudless_0_split
I1216 06:21:07.048982  3885 net.cpp:84] Creating Layer fc8_cloudless_fc8_cloudless_0_split
I1216 06:21:07.048987  3885 net.cpp:380] fc8_cloudless_fc8_cloudless_0_split <- fc8_cloudless
I1216 06:21:07.049005  3885 net.cpp:338] fc8_cloudless_fc8_cloudless_0_split -> fc8_cloudless_fc8_cloudless_0_split_0
I1216 06:21:07.049016  3885 net.cpp:338] fc8_cloudless_fc8_cloudless_0_split -> fc8_cloudless_fc8_cloudless_0_split_1
I1216 06:21:07.049024  3885 net.cpp:113] Setting up fc8_cloudless_fc8_cloudless_0_split
I1216 06:21:07.049032  3885 net.cpp:120] Top shape: 64 2 (128)
I1216 06:21:07.049037  3885 net.cpp:120] Top shape: 64 2 (128)
I1216 06:21:07.049041  3885 layer_factory.hpp:74] Creating layer accuracy
I1216 06:21:07.049089  3885 net.cpp:84] Creating Layer accuracy
I1216 06:21:07.049095  3885 net.cpp:380] accuracy <- fc8_cloudless_fc8_cloudless_0_split_0
I1216 06:21:07.049101  3885 net.cpp:380] accuracy <- label_data_1_split_0
I1216 06:21:07.049108  3885 net.cpp:338] accuracy -> accuracy
I1216 06:21:07.049115  3885 net.cpp:113] Setting up accuracy
…
I1216 06:21:07.050568  3885 net.cpp:257] The NetState phase (1) differed from the phase (0) specified by a rule in layer data
I1216 06:21:07.050611  3885 net.cpp:257] The NetState phase (1) differed from the phase (0) specified by a rule in layer accuracy
I1216 06:21:07.050957  3885 net.cpp:42] Initializing net from parameters: 
name: "AlexNet"
state {
  phase: TEST
}
layer {
  name: "data"
  type: "Data"
  top: "data"
  top: "label"
  include {
    phase: TEST
  }
  transform_param {
    mirror: false
    crop_size: 227
    mean_file: "data/imagenet/imagenet_mean.binaryproto"
  }
  data_param {
    source: "data/leveldb/validation_leveldb"
    batch_size: 50
  }
}
layer {
  name: "conv1"
  type: "Convolution"
  bottom: "data"
  top: "conv1"
  param {
    lr_mult: 0
    decay_mult: 1
  }
  param {
    lr_mult: 0
    decay_mult: 0
  }
  convolution_param {
    num_output: 96
    kernel_size: 11
    stride: 4
    weight_filler {
      type: "gaussian"
      std: 0.01
    }
    bias_filler {
      type: "constant"
      value: 0
    }
  }
}
layer {
  name: "relu1"
  type: "ReLU"
  bottom: "conv1"
  top: "conv1"
}
layer {
  name: "norm1"
  type: "LRN"
  bottom: "conv1"
  top: "norm1"
  lrn_param {
    local_size: 5
    alpha: 0.0001
    beta: 0.75
  }
}
layer {
  name: "pool1"
  type: "Pooling"
  bottom: "norm1"
  top: "pool1"
  pooling_param {
    pool: MAX
    kernel_size: 3
    stride: 2
  }
}
layer {
  name: "conv2"
  type: "Convolution"
  bottom: "pool1"
  top: "conv2"
  param {
    lr_mult: 0
    decay_mult: 1
  }
  param {
    lr_mult: 0
    decay_mult: 0
  }
  convolution_param {
    num_output: 256
    pad: 2
    kernel_size: 5
    group: 2
    weight_filler {
      type: "gaussian"
      std: 0.01
    }
    bias_filler {
      type: "constant"
      value: 0.1
    }
  }
}
layer {
  name: "relu2"
  type: "ReLU"
  bottom: "conv2"
  top: "conv2"
}
layer {
  name: "norm2"
  type: "LRN"
  bottom: "conv2"
  top: "norm2"
  lrn_param {
    local_size: 5
    alpha: 0.0001
    beta: 0.75
  }
}
layer {
  name: "pool2"
  type: "Pooling"
  bottom: "norm2"
  top: "pool2"
  pooling_param {
    pool: MAX
    kernel_size: 3
    stride: 2
  }
}
layer {
  name: "conv3"
  type: "Convolution"
  bottom: "pool2"
  top: "conv3"
  param {
    lr_mult: 0
    decay_mult: 1
  }
  param {
    lr_mult: 0
    decay_mult: 0
  }
  convolution_param {
    num_output: 384
    pad: 1
    kernel_size: 3
    weight_filler {
      type: "gaussian"
      std: 0.01
    }
    bias_filler {
      type: "constant"
      value: 0
    }
  }
}
layer {
  name: "relu3"
  type: "ReLU"
  bottom: "conv3"
  top: "conv3"
}
layer {
  name: "conv4"
  type: "Convolution"
  bottom: "conv3"
  top: "conv4"
  param {
    lr_mult: 0
    decay_mult: 1
  }
  param {
    lr_mult: 0
    decay_mult: 0
  }
  convolution_param {
    num_output: 384
    pad: 1
    kernel_size: 3
    group: 2
    weight_filler {
      type: "gaussian"
      std: 0.01
    }
    bias_filler {
      type: "constant"
      value: 0.1
    }
  }
}
layer {
  name: "relu4"
  type: "ReLU"
  bottom: "conv4"
  top: "conv4"
}
layer {
  name: "conv5"
  type: "Convolution"
  bottom: "conv4"
  top: "conv5"
  param {
    lr_mult: 0
    decay_mult: 1
  }
  param {
    lr_mult: 0
    decay_mult: 0
  }
  convolution_param {
    num_output: 256
    pad: 1
    kernel_size: 3
    group: 2
    weight_filler {
      type: "gaussian"
      std: 0.01
    }
    bias_filler {
      type: "constant"
      value: 0.1
    }
  }
}
layer {
  name: "relu5"
  type: "ReLU"
  bottom: "conv5"
  top: "conv5"
}
layer {
  name: "pool5"
  type: "Pooling"
  bottom: "conv5"
  top: "pool5"
  pooling_param {
    pool: MAX
    kernel_size: 3
    stride: 2
  }
}
layer {
  name: "fc6"
  type: "InnerProduct"
  bottom: "pool5"
  top: "fc6"
  param {
    lr_mult: 0
    decay_mult: 1
  }
  param {
    lr_mult: 0
    decay_mult: 0
  }
  inner_product_param {
    num_output: 4096
    weight_filler {
      type: "gaussian"
      std: 0.005
    }
    bias_filler {
      type: "constant"
      value: 0.1
    }
  }
}
layer {
  name: "relu6"
  type: "ReLU"
  bottom: "fc6"
  top: "fc6"
}
layer {
  name: "drop6"
  type: "Dropout"
  bottom: "fc6"
  top: "fc6"
  dropout_param {
    dropout_ratio: 0.5
  }
}
layer {
  name: "fc7"
  type: "InnerProduct"
  bottom: "fc6"
  top: "fc7"
  param {
    lr_mult: 1
    decay_mult: 1
  }
  param {
    lr_mult: 2
    decay_mult: 0
  }
  inner_product_param {
    num_output: 4096
    weight_filler {
      type: "gaussian"
      std: 0.005
    }
    bias_filler {
      type: "constant"
      value: 0.1
    }
  }
}
layer {
  name: "relu7"
  type: "ReLU"
  bottom: "fc7"
  top: "fc7"
}
layer {
  name: "drop7"
  type: "Dropout"
  bottom: "fc7"
  top: "fc7"
  dropout_param {
    dropout_ratio: 0.5
  }
}
layer {
  name: "fc8_cloudless"
  type: "InnerProduct"
  bottom: "fc7"
  top: "fc8_cloudless"
  param {
    lr_mult: 1
    decay_mult: 1
  }
  param {
    lr_mult: 2
    decay_mult: 0
  }
  inner_product_param {
    num_output: 2
    weight_filler {
      type: "gaussian"
      std: 0.01
    }
    bias_filler {
      type: "constant"
      value: 0
    }
  }
}
layer {
  name: "accuracy"
  type: "Accuracy"
  bottom: "fc8_cloudless"
  bottom: "label"
  top: "accuracy"
  include {
    phase: TEST
  }
}
layer {
  name: "loss"
  type: "SoftmaxWithLoss"
  bottom: "fc8_cloudless"
  bottom: "label"
  top: "loss"
}
I1216 06:21:07.051177  3885 layer_factory.hpp:74] Creating layer data
I1216 06:21:07.051208  3885 net.cpp:84] Creating Layer data
I1216 06:21:07.051219  3885 net.cpp:338] data -> data
I1216 06:21:07.051236  3885 net.cpp:338] data -> label
I1216 06:21:07.051251  3885 net.cpp:113] Setting up data
I1216 06:21:07.061599  3885 db.cpp:20] Opened leveldb data/leveldb/validation_leveldb
I1216 06:21:07.062067  3885 data_layer.cpp:67] output data size: 50,3,227,227
I1216 06:21:07.062090  3885 data_transformer.cpp:22] Loading mean file from: data/imagenet/imagenet_mean.binaryproto
I1216 06:21:07.072309  3885 net.cpp:120] Top shape: 50 3 227 227 (7729350)
I1216 06:21:07.072355  3885 net.cpp:120] Top shape: 50 (50)
I1216 06:21:07.072371  3885 layer_factory.hpp:74] Creating layer label_data_1_split
I1216 06:21:07.072393  3885 net.cpp:84] Creating Layer label_data_1_split
I1216 06:21:07.072402  3885 net.cpp:380] label_data_1_split <- label
I1216 06:21:07.072417  3885 net.cpp:338] label_data_1_split -> label_data_1_split_0
I1216 06:21:07.072437  3885 net.cpp:338] label_data_1_split -> label_data_1_split_1
I1216 06:21:07.072448  3885 net.cpp:113] Setting up label_data_1_split
I1216 06:21:07.072463  3885 net.cpp:120] Top shape: 50 (50)
I1216 06:21:07.072474  3885 net.cpp:120] Top shape: 50 (50)
I1216 06:21:07.072480  3885 layer_factory.hpp:74] Creating layer conv1
I1216 06:21:07.072499  3885 net.cpp:84] Creating Layer conv1
I1216 06:21:07.072506  3885 net.cpp:380] conv1 <- data
I1216 06:21:07.072518  3885 net.cpp:338] conv1 -> conv1
I1216 06:21:07.072533  3885 net.cpp:113] Setting up conv1
I1216 06:21:07.074445  3885 net.cpp:120] Top shape: 50 96 55 55 (14520000)
I1216 06:21:07.074479  3885 layer_factory.hpp:74] Creating layer relu1
I1216 06:21:07.074496  3885 net.cpp:84] Creating Layer relu1
I1216 06:21:07.074503  3885 net.cpp:380] relu1 <- conv1
I1216 06:21:07.074515  3885 net.cpp:327] relu1 -> conv1 (in-place)
I1216 06:21:07.074527  3885 net.cpp:113] Setting up relu1
I1216 06:21:07.074717  3885 net.cpp:120] Top shape: 50 96 55 55 (14520000)
I1216 06:21:07.074735  3885 layer_factory.hpp:74] Creating layer norm1
I1216 06:21:07.074748  3885 net.cpp:84] Creating Layer norm1
I1216 06:21:07.074753  3885 net.cpp:380] norm1 <- conv1
I1216 06:21:07.074764  3885 net.cpp:338] norm1 -> norm1
I1216 06:21:07.074771  3885 net.cpp:113] Setting up norm1
I1216 06:21:07.074790  3885 net.cpp:120] Top shape: 50 96 55 55 (14520000)
I1216 06:21:07.074800  3885 layer_factory.hpp:74] Creating layer pool1
I1216 06:21:07.074813  3885 net.cpp:84] Creating Layer pool1
I1216 06:21:07.074818  3885 net.cpp:380] pool1 <- norm1
I1216 06:21:07.074826  3885 net.cpp:338] pool1 -> pool1
I1216 06:21:07.074833  3885 net.cpp:113] Setting up pool1
I1216 06:21:07.074895  3885 net.cpp:120] Top shape: 50 96 27 27 (3499200)
I1216 06:21:07.074903  3885 layer_factory.hpp:74] Creating layer conv2
I1216 06:21:07.074911  3885 net.cpp:84] Creating Layer conv2
I1216 06:21:07.074916  3885 net.cpp:380] conv2 <- pool1
I1216 06:21:07.074923  3885 net.cpp:338] conv2 -> conv2
I1216 06:21:07.074931  3885 net.cpp:113] Setting up conv2
I1216 06:21:07.086830  3885 net.cpp:120] Top shape: 50 256 27 27 (9331200)
I1216 06:21:07.086923  3885 layer_factory.hpp:74] Creating layer relu2
I1216 06:21:07.086941  3885 net.cpp:84] Creating Layer relu2
I1216 06:21:07.086948  3885 net.cpp:380] relu2 <- conv2
I1216 06:21:07.086966  3885 net.cpp:327] relu2 -> conv2 (in-place)
I1216 06:21:07.086979  3885 net.cpp:113] Setting up relu2
I1216 06:21:07.087062  3885 net.cpp:120] Top shape: 50 256 27 27 (9331200)
I1216 06:21:07.087072  3885 layer_factory.hpp:74] Creating layer norm2
I1216 06:21:07.087090  3885 net.cpp:84] Creating Layer norm2
I1216 06:21:07.087097  3885 net.cpp:380] norm2 <- conv2
I1216 06:21:07.087110  3885 net.cpp:338] norm2 -> norm2
I1216 06:21:07.087123  3885 net.cpp:113] Setting up norm2
I1216 06:21:07.087136  3885 net.cpp:120] Top shape: 50 256 27 27 (9331200)
I1216 06:21:07.087143  3885 layer_factory.hpp:74] Creating layer pool2
I1216 06:21:07.087154  3885 net.cpp:84] Creating Layer pool2
I1216 06:21:07.087162  3885 net.cpp:380] pool2 <- norm2
I1216 06:21:07.087178  3885 net.cpp:338] pool2 -> pool2
I1216 06:21:07.087189  3885 net.cpp:113] Setting up pool2
I1216 06:21:07.087266  3885 net.cpp:120] Top shape: 50 256 13 13 (2163200)
I1216 06:21:07.087276  3885 layer_factory.hpp:74] Creating layer conv3
I1216 06:21:07.087291  3885 net.cpp:84] Creating Layer conv3
I1216 06:21:07.087298  3885 net.cpp:380] conv3 <- pool2
I1216 06:21:07.087329  3885 net.cpp:338] conv3 -> conv3
I1216 06:21:07.087345  3885 net.cpp:113] Setting up conv3
I1216 06:21:07.119384  3885 net.cpp:120] Top shape: 50 384 13 13 (3244800)
I1216 06:21:07.119428  3885 layer_factory.hpp:74] Creating layer relu3
I1216 06:21:07.119444  3885 net.cpp:84] Creating Layer relu3
I1216 06:21:07.119451  3885 net.cpp:380] relu3 <- conv3
I1216 06:21:07.119460  3885 net.cpp:327] relu3 -> conv3 (in-place)
I1216 06:21:07.119470  3885 net.cpp:113] Setting up relu3
I1216 06:21:07.119654  3885 net.cpp:120] Top shape: 50 384 13 13 (3244800)
I1216 06:21:07.119669  3885 layer_factory.hpp:74] Creating layer conv4
I1216 06:21:07.119688  3885 net.cpp:84] Creating Layer conv4
I1216 06:21:07.119699  3885 net.cpp:380] conv4 <- conv3
I1216 06:21:07.119714  3885 net.cpp:338] conv4 -> conv4
I1216 06:21:07.119731  3885 net.cpp:113] Setting up conv4
I1216 06:21:07.143358  3885 net.cpp:120] Top shape: 50 384 13 13 (3244800)
I1216 06:21:07.143385  3885 layer_factory.hpp:74] Creating layer relu4
I1216 06:21:07.143395  3885 net.cpp:84] Creating Layer relu4
I1216 06:21:07.143400  3885 net.cpp:380] relu4 <- conv4
I1216 06:21:07.143409  3885 net.cpp:327] relu4 -> conv4 (in-place)
I1216 06:21:07.143416  3885 net.cpp:113] Setting up relu4
I1216 06:21:07.143466  3885 net.cpp:120] Top shape: 50 384 13 13 (3244800)
I1216 06:21:07.143473  3885 layer_factory.hpp:74] Creating layer conv5
I1216 06:21:07.143483  3885 net.cpp:84] Creating Layer conv5
I1216 06:21:07.143488  3885 net.cpp:380] conv5 <- conv4
I1216 06:21:07.143496  3885 net.cpp:338] conv5 -> conv5
I1216 06:21:07.143504  3885 net.cpp:113] Setting up conv5
I1216 06:21:07.159873  3885 net.cpp:120] Top shape: 50 256 13 13 (2163200)
I1216 06:21:07.159912  3885 layer_factory.hpp:74] Creating layer relu5
I1216 06:21:07.159931  3885 net.cpp:84] Creating Layer relu5
I1216 06:21:07.159941  3885 net.cpp:380] relu5 <- conv5
I1216 06:21:07.159955  3885 net.cpp:327] relu5 -> conv5 (in-place)
I1216 06:21:07.159966  3885 net.cpp:113] Setting up relu5
I1216 06:21:07.160053  3885 net.cpp:120] Top shape: 50 256 13 13 (2163200)
I1216 06:21:07.160075  3885 layer_factory.hpp:74] Creating layer pool5
I1216 06:21:07.160095  3885 net.cpp:84] Creating Layer pool5
I1216 06:21:07.160104  3885 net.cpp:380] pool5 <- conv5
I1216 06:21:07.160118  3885 net.cpp:338] pool5 -> pool5
I1216 06:21:07.160141  3885 net.cpp:113] Setting up pool5
I1216 06:21:07.160351  3885 net.cpp:120] Top shape: 50 256 6 6 (460800)
I1216 06:21:07.160372  3885 layer_factory.hpp:74] Creating layer fc6
I1216 06:21:07.160390  3885 net.cpp:84] Creating Layer fc6
I1216 06:21:07.160399  3885 net.cpp:380] fc6 <- pool5
I1216 06:21:07.160416  3885 net.cpp:338] fc6 -> fc6
I1216 06:21:07.160466  3885 net.cpp:113] Setting up fc6
I1216 06:21:08.504756  3885 net.cpp:120] Top shape: 50 4096 (204800)
I1216 06:21:08.504822  3885 layer_factory.hpp:74] Creating layer relu6
I1216 06:21:08.504839  3885 net.cpp:84] Creating Layer relu6
I1216 06:21:08.504848  3885 net.cpp:380] relu6 <- fc6
I1216 06:21:08.504860  3885 net.cpp:327] relu6 -> fc6 (in-place)
I1216 06:21:08.504874  3885 net.cpp:113] Setting up relu6
I1216 06:21:08.505012  3885 net.cpp:120] Top shape: 50 4096 (204800)
I1216 06:21:08.505023  3885 layer_factory.hpp:74] Creating layer drop6
I1216 06:21:08.505040  3885 net.cpp:84] Creating Layer drop6
I1216 06:21:08.505049  3885 net.cpp:380] drop6 <- fc6
I1216 06:21:08.505061  3885 net.cpp:327] drop6 -> fc6 (in-place)
I1216 06:21:08.505074  3885 net.cpp:113] Setting up drop6
I1216 06:21:08.505087  3885 net.cpp:120] Top shape: 50 4096 (204800)
I1216 06:21:08.505095  3885 layer_factory.hpp:74] Creating layer fc7
I1216 06:21:08.505110  3885 net.cpp:84] Creating Layer fc7
I1216 06:21:08.505120  3885 net.cpp:380] fc7 <- fc6
I1216 06:21:08.505132  3885 net.cpp:338] fc7 -> fc7
I1216 06:21:08.505148  3885 net.cpp:113] Setting up fc7
I1216 06:21:09.060334  3885 net.cpp:120] Top shape: 50 4096 (204800)
I1216 06:21:09.060386  3885 layer_factory.hpp:74] Creating layer relu7
I1216 06:21:09.060405  3885 net.cpp:84] Creating Layer relu7
I1216 06:21:09.060411  3885 net.cpp:380] relu7 <- fc7
I1216 06:21:09.060421  3885 net.cpp:327] relu7 -> fc7 (in-place)
I1216 06:21:09.060431  3885 net.cpp:113] Setting up relu7
I1216 06:21:09.060533  3885 net.cpp:120] Top shape: 50 4096 (204800)
I1216 06:21:09.060541  3885 layer_factory.hpp:74] Creating layer drop7
I1216 06:21:09.060550  3885 net.cpp:84] Creating Layer drop7
I1216 06:21:09.060555  3885 net.cpp:380] drop7 <- fc7
I1216 06:21:09.060561  3885 net.cpp:327] drop7 -> fc7 (in-place)
I1216 06:21:09.060569  3885 net.cpp:113] Setting up drop7
I1216 06:21:09.060576  3885 net.cpp:120] Top shape: 50 4096 (204800)
I1216 06:21:09.060580  3885 layer_factory.hpp:74] Creating layer fc8_cloudless
I1216 06:21:09.060590  3885 net.cpp:84] Creating Layer fc8_cloudless
I1216 06:21:09.060595  3885 net.cpp:380] fc8_cloudless <- fc7
I1216 06:21:09.060605  3885 net.cpp:338] fc8_cloudless -> fc8_cloudless
I1216 06:21:09.060617  3885 net.cpp:113] Setting up fc8_cloudless
I1216 06:21:09.060935  3885 net.cpp:120] Top shape: 50 2 (100)
I1216 06:21:09.060956  3885 layer_factory.hpp:74] Creating layer fc8_cloudless_fc8_cloudless_0_split
I1216 06:21:09.060963  3885 net.cpp:84] Creating Layer fc8_cloudless_fc8_cloudless_0_split
I1216 06:21:09.060968  3885 net.cpp:380] fc8_cloudless_fc8_cloudless_0_split <- fc8_cloudless
I1216 06:21:09.060976  3885 net.cpp:338] fc8_cloudless_fc8_cloudless_0_split -> fc8_cloudless_fc8_cloudless_0_split_0
I1216 06:21:09.060997  3885 net.cpp:338] fc8_cloudless_fc8_cloudless_0_split -> fc8_cloudless_fc8_cloudless_0_split_1
I1216 06:21:09.061008  3885 net.cpp:113] Setting up fc8_cloudless_fc8_cloudless_0_split
I1216 06:21:09.061017  3885 net.cpp:120] Top shape: 50 2 (100)
I1216 06:21:09.061022  3885 net.cpp:120] Top shape: 50 2 (100)
I1216 06:21:09.061028  3885 layer_factory.hpp:74] Creating layer accuracy
I1216 06:21:09.061038  3885 net.cpp:84] Creating Layer accuracy
I1216 06:21:09.061043  3885 net.cpp:380] accuracy <- fc8_cloudless_fc8_cloudless_0_split_0
I1216 06:21:09.061058  3885 net.cpp:380] accuracy <- label_data_1_split_0
I1216 06:21:09.061070  3885 net.cpp:338] accuracy -> accuracy
I1216 06:21:09.061086  3885 net.cpp:113] Setting up accuracy
…
