…
I0818 21:56:35.552847 1954198272 net.cpp:287] The NetState phase (0) differed from the phase (1) specified by a rule in layer data
I0818 21:56:35.552875 1954198272 net.cpp:287] The NetState phase (0) differed from the phase (1) specified by a rule in layer accuracy
I0818 21:56:35.552887 1954198272 net.cpp:42] Initializing net from parameters: 
name: "AlexNet"
state {
  phase: TRAIN
}
layer {
  name: "data"
  type: "Data"
  top: "data"
  top: "label"
  include {
    phase: TRAIN
  }
  transform_param {
    mirror: true
    crop_size: 227
    mean_file: "data/imagenet/imagenet_mean.binaryproto"
  }
  data_param {
    source: "data/leveldb/train_leveldb"
    batch_size: 64
  }
}
layer {
  name: "conv1"
  type: "Convolution"
  bottom: "data"
  top: "conv1"
  param {
    lr_mult: 0
    decay_mult: 1
  }
  param {
    lr_mult: 0
    decay_mult: 0
  }
  convolution_param {
    num_output: 96
    kernel_size: 11
    stride: 4
    weight_filler {
      type: "gaussian"
      std: 0.01
    }
    bias_filler {
      type: "constant"
      value: 0
    }
  }
}
layer {
  name: "relu1"
  type: "ReLU"
  bottom: "conv1"
  top: "conv1"
}
layer {
  name: "norm1"
  type: "LRN"
  bottom: "conv1"
  top: "norm1"
  lrn_param {
    local_size: 5
    alpha: 0.0001
    beta: 0.75
  }
}
layer {
  name: "pool1"
  type: "Pooling"
  bottom: "norm1"
  top: "pool1"
  pooling_param {
    pool: MAX
    kernel_size: 3
    stride: 2
  }
}
layer {
  name: "conv2"
  type: "Convolution"
  bottom: "pool1"
  top: "conv2"
  param {
    lr_mult: 0
    decay_mult: 1
  }
  param {
    lr_mult: 0
    decay_mult: 0
  }
  convolution_param {
    num_output: 256
    pad: 2
    kernel_size: 5
    group: 2
    weight_filler {
      type: "gaussian"
      std: 0.01
    }
    bias_filler {
      type: "constant"
      value: 0.1
    }
  }
}
layer {
  name: "relu2"
  type: "ReLU"
  bottom: "conv2"
  top: "conv2"
}
layer {
  name: "norm2"
  type: "LRN"
  bottom: "conv2"
  top: "norm2"
  lrn_param {
    local_size: 5
    alpha: 0.0001
    beta: 0.75
  }
}
layer {
  name: "pool2"
  type: "Pooling"
  bottom: "norm2"
  top: "pool2"
  pooling_param {
    pool: MAX
    kernel_size: 3
    stride: 2
  }
}
layer {
  name: "conv3"
  type: "Convolution"
  bottom: "pool2"
  top: "conv3"
  param {
    lr_mult: 0
    decay_mult: 1
  }
  param {
    lr_mult: 0
    decay_mult: 0
  }
  convolution_param {
    num_output: 384
    pad: 1
    kernel_size: 3
    weight_filler {
      type: "gaussian"
      std: 0.01
    }
    bias_filler {
      type: "constant"
      value: 0
    }
  }
}
layer {
  name: "relu3"
  type: "ReLU"
  bottom: "conv3"
  top: "conv3"
}
layer {
  name: "conv4"
  type: "Convolution"
  bottom: "conv3"
  top: "conv4"
  param {
    lr_mult: 0
    decay_mult: 1
  }
  param {
    lr_mult: 0
    decay_mult: 0
  }
  convolution_param {
    num_output: 384
    pad: 1
    kernel_size: 3
    group: 2
    weight_filler {
      type: "gaussian"
      std: 0.01
    }
    bias_filler {
      type: "constant"
      value: 0.1
    }
  }
}
layer {
  name: "relu4"
  type: "ReLU"
  bottom: "conv4"
  top: "conv4"
}
layer {
  name: "conv5"
  type: "Convolution"
  bottom: "conv4"
  top: "conv5"
  param {
    lr_mult: 0
    decay_mult: 1
  }
  param {
    lr_mult: 0
    decay_mult: 0
  }
  convolution_param {
    num_output: 256
    pad: 1
    kernel_size: 3
    group: 2
    weight_filler {
      type: "gaussian"
      std: 0.01
    }
    bias_filler {
      type: "constant"
      value: 0.1
    }
  }
}
layer {
  name: "relu5"
  type: "ReLU"
  bottom: "conv5"
  top: "conv5"
}
layer {
  name: "pool5"
  type: "Pooling"
  bottom: "conv5"
  top: "pool5"
  pooling_param {
    pool: MAX
    kernel_size: 3
    stride: 2
  }
}
layer {
  name: "fc6"
  type: "InnerProduct"
  bottom: "pool5"
  top: "fc6"
  param {
    lr_mult: 1
    decay_mult: 1
  }
  param {
    lr_mult: 2
    decay_mult: 0
  }
  inner_product_param {
    num_output: 4096
    weight_filler {
      type: "gaussian"
      std: 0.005
    }
    bias_filler {
      type: "constant"
      value: 0.1
    }
  }
}
layer {
  name: "relu6"
  type: "ReLU"
  bottom: "fc6"
  top: "fc6"
}
layer {
  name: "drop6"
  type: "Dropout"
  bottom: "fc6"
  top: "fc6"
  dropout_param {
    dropout_ratio: 0.5
  }
}
layer {
  name: "fc7"
  type: "InnerProduct"
  bottom: "fc6"
  top: "fc7"
  param {
    lr_mult: 1
    decay_mult: 1
  }
  param {
    lr_mult: 2
    decay_mult: 0
  }
  inner_product_param {
    num_output: 4096
    weight_filler {
      type: "gaussian"
      std: 0.005
    }
    bias_filler {
      type: "constant"
      value: 0.1
    }
  }
}
layer {
  name: "relu7"
  type: "ReLU"
  bottom: "fc7"
  top: "fc7"
}
layer {
  name: "drop7"
  type: "Dropout"
  bottom: "fc7"
  top: "fc7"
  dropout_param {
    dropout_ratio: 0.5
  }
}
layer {
  name: "fc8_cloudless"
  type: "InnerProduct"
  bottom: "fc7"
  top: "fc8_cloudless"
  param {
    lr_mult: 10
    decay_mult: 1
  }
  param {
    lr_mult: 20
    decay_mult: 0
  }
  inner_product_param {
    num_output: 1
    weight_filler {
      type: "gaussian"
      std: 0.01
    }
    bias_filler {
      type: "constant"
      value: 0
    }
  }
}
layer {
  name: "loss"
  type: "SoftmaxWithLoss"
  bottom: "fc8_cloudless"
  bottom: "label"
  top: "loss"
}
I0818 21:56:35.553257 1954198272 layer_factory.hpp:74] Creating layer data
I0818 21:56:35.553299 1954198272 net.cpp:90] Creating Layer data
I0818 21:56:35.553318 1954198272 net.cpp:368] data -> data
I0818 21:56:35.553339 1954198272 net.cpp:368] data -> label
I0818 21:56:35.553347 1954198272 net.cpp:120] Setting up data
I0818 21:56:35.553354 1954198272 data_transformer.cpp:22] Loading mean file from: data/imagenet/imagenet_mean.binaryproto
I0818 21:56:35.561700 1954198272 db.cpp:20] Opened leveldb data/leveldb/train_leveldb
I0818 21:56:35.562082 1954198272 data_layer.cpp:52] output data size: 64,3,227,227
I0818 21:56:35.576768 1954198272 net.cpp:127] Top shape: 64 3 227 227 (9893568)
I0818 21:56:35.576802 1954198272 net.cpp:127] Top shape: 64 (64)
I0818 21:56:35.576809 1954198272 layer_factory.hpp:74] Creating layer conv1
I0818 21:56:35.576822 1954198272 net.cpp:90] Creating Layer conv1
I0818 21:56:35.576827 1954198272 net.cpp:410] conv1 <- data
I0818 21:56:35.576838 1954198272 net.cpp:368] conv1 -> conv1
I0818 21:56:35.576848 1954198272 net.cpp:120] Setting up conv1
I0818 21:56:35.634026 1954198272 net.cpp:127] Top shape: 64 96 55 55 (18585600)
I0818 21:56:35.634065 1954198272 layer_factory.hpp:74] Creating layer relu1
I0818 21:56:35.634086 1954198272 net.cpp:90] Creating Layer relu1
I0818 21:56:35.634093 1954198272 net.cpp:410] relu1 <- conv1
I0818 21:56:35.634099 1954198272 net.cpp:357] relu1 -> conv1 (in-place)
I0818 21:56:35.634105 1954198272 net.cpp:120] Setting up relu1
I0818 21:56:35.634210 1954198272 net.cpp:127] Top shape: 64 96 55 55 (18585600)
I0818 21:56:35.634220 1954198272 layer_factory.hpp:74] Creating layer norm1
I0818 21:56:35.634233 1954198272 net.cpp:90] Creating Layer norm1
I0818 21:56:35.634240 1954198272 net.cpp:410] norm1 <- conv1
I0818 21:56:35.634248 1954198272 net.cpp:368] norm1 -> norm1
I0818 21:56:35.634258 1954198272 net.cpp:120] Setting up norm1
I0818 21:56:35.634265 1954198272 net.cpp:127] Top shape: 64 96 55 55 (18585600)
I0818 21:56:35.634297 1954198272 layer_factory.hpp:74] Creating layer pool1
I0818 21:56:35.634311 1954198272 net.cpp:90] Creating Layer pool1
I0818 21:56:35.634315 1954198272 net.cpp:410] pool1 <- norm1
I0818 21:56:35.634321 1954198272 net.cpp:368] pool1 -> pool1
I0818 21:56:35.634327 1954198272 net.cpp:120] Setting up pool1
I0818 21:56:35.634387 1954198272 net.cpp:127] Top shape: 64 96 27 27 (4478976)
I0818 21:56:35.634425 1954198272 layer_factory.hpp:74] Creating layer conv2
I0818 21:56:35.634438 1954198272 net.cpp:90] Creating Layer conv2
I0818 21:56:35.634443 1954198272 net.cpp:410] conv2 <- pool1
I0818 21:56:35.634452 1954198272 net.cpp:368] conv2 -> conv2
I0818 21:56:35.634464 1954198272 net.cpp:120] Setting up conv2
I0818 21:56:35.638561 1954198272 net.cpp:127] Top shape: 64 256 27 27 (11943936)
I0818 21:56:35.638592 1954198272 layer_factory.hpp:74] Creating layer relu2
I0818 21:56:35.638598 1954198272 net.cpp:90] Creating Layer relu2
I0818 21:56:35.638620 1954198272 net.cpp:410] relu2 <- conv2
I0818 21:56:35.638627 1954198272 net.cpp:357] relu2 -> conv2 (in-place)
I0818 21:56:35.638633 1954198272 net.cpp:120] Setting up relu2
I0818 21:56:35.638679 1954198272 net.cpp:127] Top shape: 64 256 27 27 (11943936)
I0818 21:56:35.638686 1954198272 layer_factory.hpp:74] Creating layer norm2
I0818 21:56:35.638695 1954198272 net.cpp:90] Creating Layer norm2
I0818 21:56:35.638701 1954198272 net.cpp:410] norm2 <- conv2
I0818 21:56:35.638710 1954198272 net.cpp:368] norm2 -> norm2
I0818 21:56:35.638717 1954198272 net.cpp:120] Setting up norm2
I0818 21:56:35.638723 1954198272 net.cpp:127] Top shape: 64 256 27 27 (11943936)
I0818 21:56:35.638732 1954198272 layer_factory.hpp:74] Creating layer pool2
I0818 21:56:35.638772 1954198272 net.cpp:90] Creating Layer pool2
I0818 21:56:35.638797 1954198272 net.cpp:410] pool2 <- norm2
I0818 21:56:35.638805 1954198272 net.cpp:368] pool2 -> pool2
I0818 21:56:35.638811 1954198272 net.cpp:120] Setting up pool2
I0818 21:56:35.639008 1954198272 net.cpp:127] Top shape: 64 256 13 13 (2768896)
I0818 21:56:35.639019 1954198272 layer_factory.hpp:74] Creating layer conv3
I0818 21:56:35.639030 1954198272 net.cpp:90] Creating Layer conv3
I0818 21:56:35.639050 1954198272 net.cpp:410] conv3 <- pool2
I0818 21:56:35.639070 1954198272 net.cpp:368] conv3 -> conv3
I0818 21:56:35.639087 1954198272 net.cpp:120] Setting up conv3
I0818 21:56:35.650842 1954198272 net.cpp:127] Top shape: 64 384 13 13 (4153344)
I0818 21:56:35.650876 1954198272 layer_factory.hpp:74] Creating layer relu3
I0818 21:56:35.650885 1954198272 net.cpp:90] Creating Layer relu3
I0818 21:56:35.650890 1954198272 net.cpp:410] relu3 <- conv3
I0818 21:56:35.650898 1954198272 net.cpp:357] relu3 -> conv3 (in-place)
I0818 21:56:35.650904 1954198272 net.cpp:120] Setting up relu3
I0818 21:56:35.650948 1954198272 net.cpp:127] Top shape: 64 384 13 13 (4153344)
I0818 21:56:35.650954 1954198272 layer_factory.hpp:74] Creating layer conv4
I0818 21:56:35.650962 1954198272 net.cpp:90] Creating Layer conv4
I0818 21:56:35.650966 1954198272 net.cpp:410] conv4 <- conv3
I0818 21:56:35.650972 1954198272 net.cpp:368] conv4 -> conv4
I0818 21:56:35.650979 1954198272 net.cpp:120] Setting up conv4
I0818 21:56:35.660011 1954198272 net.cpp:127] Top shape: 64 384 13 13 (4153344)
I0818 21:56:35.660040 1954198272 layer_factory.hpp:74] Creating layer relu4
I0818 21:56:35.660049 1954198272 net.cpp:90] Creating Layer relu4
I0818 21:56:35.660053 1954198272 net.cpp:410] relu4 <- conv4
I0818 21:56:35.660060 1954198272 net.cpp:357] relu4 -> conv4 (in-place)
I0818 21:56:35.660068 1954198272 net.cpp:120] Setting up relu4
I0818 21:56:35.660109 1954198272 net.cpp:127] Top shape: 64 384 13 13 (4153344)
I0818 21:56:35.660115 1954198272 layer_factory.hpp:74] Creating layer conv5
I0818 21:56:35.660128 1954198272 net.cpp:90] Creating Layer conv5
I0818 21:56:35.660132 1954198272 net.cpp:410] conv5 <- conv4
I0818 21:56:35.660138 1954198272 net.cpp:368] conv5 -> conv5
I0818 21:56:35.660145 1954198272 net.cpp:120] Setting up conv5
I0818 21:56:35.665731 1954198272 net.cpp:127] Top shape: 64 256 13 13 (2768896)
I0818 21:56:35.665765 1954198272 layer_factory.hpp:74] Creating layer relu5
I0818 21:56:35.665773 1954198272 net.cpp:90] Creating Layer relu5
I0818 21:56:35.665778 1954198272 net.cpp:410] relu5 <- conv5
I0818 21:56:35.665783 1954198272 net.cpp:357] relu5 -> conv5 (in-place)
I0818 21:56:35.665789 1954198272 net.cpp:120] Setting up relu5
I0818 21:56:35.665834 1954198272 net.cpp:127] Top shape: 64 256 13 13 (2768896)
I0818 21:56:35.665865 1954198272 layer_factory.hpp:74] Creating layer pool5
I0818 21:56:35.665873 1954198272 net.cpp:90] Creating Layer pool5
I0818 21:56:35.665876 1954198272 net.cpp:410] pool5 <- conv5
I0818 21:56:35.665925 1954198272 net.cpp:368] pool5 -> pool5
I0818 21:56:35.665940 1954198272 net.cpp:120] Setting up pool5
I0818 21:56:35.666115 1954198272 net.cpp:127] Top shape: 64 256 6 6 (589824)
I0818 21:56:35.666127 1954198272 layer_factory.hpp:74] Creating layer fc6
I0818 21:56:35.666144 1954198272 net.cpp:90] Creating Layer fc6
I0818 21:56:35.666151 1954198272 net.cpp:410] fc6 <- pool5
I0818 21:56:35.666157 1954198272 net.cpp:368] fc6 -> fc6
I0818 21:56:35.666185 1954198272 net.cpp:120] Setting up fc6
I0818 21:56:36.163878 1954198272 net.cpp:127] Top shape: 64 4096 (262144)
I0818 21:56:36.163918 1954198272 layer_factory.hpp:74] Creating layer relu6
I0818 21:56:36.164033 1954198272 net.cpp:90] Creating Layer relu6
I0818 21:56:36.164046 1954198272 net.cpp:410] relu6 <- fc6
I0818 21:56:36.164052 1954198272 net.cpp:357] relu6 -> fc6 (in-place)
I0818 21:56:36.164060 1954198272 net.cpp:120] Setting up relu6
I0818 21:56:36.164175 1954198272 net.cpp:127] Top shape: 64 4096 (262144)
I0818 21:56:36.164188 1954198272 layer_factory.hpp:74] Creating layer drop6
I0818 21:56:36.164197 1954198272 net.cpp:90] Creating Layer drop6
I0818 21:56:36.164202 1954198272 net.cpp:410] drop6 <- fc6
I0818 21:56:36.164209 1954198272 net.cpp:357] drop6 -> fc6 (in-place)
I0818 21:56:36.164218 1954198272 net.cpp:120] Setting up drop6
I0818 21:56:36.164230 1954198272 net.cpp:127] Top shape: 64 4096 (262144)
I0818 21:56:36.164235 1954198272 layer_factory.hpp:74] Creating layer fc7
I0818 21:56:36.164243 1954198272 net.cpp:90] Creating Layer fc7
I0818 21:56:36.164247 1954198272 net.cpp:410] fc7 <- fc6
I0818 21:56:36.164252 1954198272 net.cpp:368] fc7 -> fc7
I0818 21:56:36.164259 1954198272 net.cpp:120] Setting up fc7
I0818 21:56:36.374387 1954198272 net.cpp:127] Top shape: 64 4096 (262144)
I0818 21:56:36.374423 1954198272 layer_factory.hpp:74] Creating layer relu7
I0818 21:56:36.374431 1954198272 net.cpp:90] Creating Layer relu7
I0818 21:56:36.374436 1954198272 net.cpp:410] relu7 <- fc7
I0818 21:56:36.374441 1954198272 net.cpp:357] relu7 -> fc7 (in-place)
I0818 21:56:36.374449 1954198272 net.cpp:120] Setting up relu7
I0818 21:56:36.374536 1954198272 net.cpp:127] Top shape: 64 4096 (262144)
I0818 21:56:36.374542 1954198272 layer_factory.hpp:74] Creating layer drop7
I0818 21:56:36.374547 1954198272 net.cpp:90] Creating Layer drop7
I0818 21:56:36.374552 1954198272 net.cpp:410] drop7 <- fc7
I0818 21:56:36.374555 1954198272 net.cpp:357] drop7 -> fc7 (in-place)
I0818 21:56:36.374560 1954198272 net.cpp:120] Setting up drop7
I0818 21:56:36.374603 1954198272 net.cpp:127] Top shape: 64 4096 (262144)
I0818 21:56:36.374614 1954198272 layer_factory.hpp:74] Creating layer fc8_cloudless
I0818 21:56:36.374629 1954198272 net.cpp:90] Creating Layer fc8_cloudless
I0818 21:56:36.374634 1954198272 net.cpp:410] fc8_cloudless <- fc7
I0818 21:56:36.374640 1954198272 net.cpp:368] fc8_cloudless -> fc8_cloudless
I0818 21:56:36.374649 1954198272 net.cpp:120] Setting up fc8_cloudless
I0818 21:56:36.374716 1954198272 net.cpp:127] Top shape: 64 1 (64)
I0818 21:56:36.374723 1954198272 layer_factory.hpp:74] Creating layer loss
I0818 21:56:36.374737 1954198272 net.cpp:90] Creating Layer loss
I0818 21:56:36.374742 1954198272 net.cpp:410] loss <- fc8_cloudless
I0818 21:56:36.374747 1954198272 net.cpp:410] loss <- label
I0818 21:56:36.374753 1954198272 net.cpp:368] loss -> loss
I0818 21:56:36.374759 1954198272 net.cpp:120] Setting up loss
I0818 21:56:36.374773 1954198272 layer_factory.hpp:74] Creating layer loss
…
I0818 21:56:36.375402 1954198272 solver.cpp:154] Creating test net (#0) specified by net file: src/caffe_model/bvlc_alexnet/train_val.prototxt
I0818 21:56:36.375481 1954198272 net.cpp:287] The NetState phase (1) differed from the phase (0) specified by a rule in layer data
I0818 21:56:36.375504 1954198272 net.cpp:42] Initializing net from parameters: 
name: "AlexNet"
state {
  phase: TEST
}
layer {
  name: "data"
  type: "Data"
  top: "data"
  top: "label"
  include {
    phase: TEST
  }
  transform_param {
    mirror: false
    crop_size: 227
    mean_file: "data/imagenet/imagenet_mean.binaryproto"
  }
  data_param {
    source: "data/leveldb/validation_leveldb"
    batch_size: 50
  }
}
layer {
  name: "conv1"
  type: "Convolution"
  bottom: "data"
  top: "conv1"
  param {
    lr_mult: 0
    decay_mult: 1
  }
  param {
    lr_mult: 0
    decay_mult: 0
  }
  convolution_param {
    num_output: 96
    kernel_size: 11
    stride: 4
    weight_filler {
      type: "gaussian"
      std: 0.01
    }
    bias_filler {
      type: "constant"
      value: 0
    }
  }
}
layer {
  name: "relu1"
  type: "ReLU"
  bottom: "conv1"
  top: "conv1"
}
layer {
  name: "norm1"
  type: "LRN"
  bottom: "conv1"
  top: "norm1"
  lrn_param {
    local_size: 5
    alpha: 0.0001
    beta: 0.75
  }
}
layer {
  name: "pool1"
  type: "Pooling"
  bottom: "norm1"
  top: "pool1"
  pooling_param {
    pool: MAX
    kernel_size: 3
    stride: 2
  }
}
layer {
  name: "conv2"
  type: "Convolution"
  bottom: "pool1"
  top: "conv2"
  param {
    lr_mult: 0
    decay_mult: 1
  }
  param {
    lr_mult: 0
    decay_mult: 0
  }
  convolution_param {
    num_output: 256
    pad: 2
    kernel_size: 5
    group: 2
    weight_filler {
      type: "gaussian"
      std: 0.01
    }
    bias_filler {
      type: "constant"
      value: 0.1
    }
  }
}
layer {
  name: "relu2"
  type: "ReLU"
  bottom: "conv2"
  top: "conv2"
}
layer {
  name: "norm2"
  type: "LRN"
  bottom: "conv2"
  top: "norm2"
  lrn_param {
    local_size: 5
    alpha: 0.0001
    beta: 0.75
  }
}
layer {
  name: "pool2"
  type: "Pooling"
  bottom: "norm2"
  top: "pool2"
  pooling_param {
    pool: MAX
    kernel_size: 3
    stride: 2
  }
}
layer {
  name: "conv3"
  type: "Convolution"
  bottom: "pool2"
  top: "conv3"
  param {
    lr_mult: 0
    decay_mult: 1
  }
  param {
    lr_mult: 0
    decay_mult: 0
  }
  convolution_param {
    num_output: 384
    pad: 1
    kernel_size: 3
    weight_filler {
      type: "gaussian"
      std: 0.01
    }
    bias_filler {
      type: "constant"
      value: 0
    }
  }
}
layer {
  name: "relu3"
  type: "ReLU"
  bottom: "conv3"
  top: "conv3"
}
layer {
  name: "conv4"
  type: "Convolution"
  bottom: "conv3"
  top: "conv4"
  param {
    lr_mult: 0
    decay_mult: 1
  }
  param {
    lr_mult: 0
    decay_mult: 0
  }
  convolution_param {
    num_output: 384
    pad: 1
    kernel_size: 3
    group: 2
    weight_filler {
      type: "gaussian"
      std: 0.01
    }
    bias_filler {
      type: "constant"
      value: 0.1
    }
  }
}
layer {
  name: "relu4"
  type: "ReLU"
  bottom: "conv4"
  top: "conv4"
}
layer {
  name: "conv5"
  type: "Convolution"
  bottom: "conv4"
  top: "conv5"
  param {
    lr_mult: 0
    decay_mult: 1
  }
  param {
    lr_mult: 0
    decay_mult: 0
  }
  convolution_param {
    num_output: 256
    pad: 1
    kernel_size: 3
    group: 2
    weight_filler {
      type: "gaussian"
      std: 0.01
    }
    bias_filler {
      type: "constant"
      value: 0.1
    }
  }
}
layer {
  name: "relu5"
  type: "ReLU"
  bottom: "conv5"
  top: "conv5"
}
layer {
  name: "pool5"
  type: "Pooling"
  bottom: "conv5"
  top: "pool5"
  pooling_param {
    pool: MAX
    kernel_size: 3
    stride: 2
  }
}
layer {
  name: "fc6"
  type: "InnerProduct"
  bottom: "pool5"
  top: "fc6"
  param {
    lr_mult: 1
    decay_mult: 1
  }
  param {
    lr_mult: 2
    decay_mult: 0
  }
  inner_product_param {
    num_output: 4096
    weight_filler {
      type: "gaussian"
      std: 0.005
    }
    bias_filler {
      type: "constant"
      value: 0.1
    }
  }
}
layer {
  name: "relu6"
  type: "ReLU"
  bottom: "fc6"
  top: "fc6"
}
layer {
  name: "drop6"
  type: "Dropout"
  bottom: "fc6"
  top: "fc6"
  dropout_param {
    dropout_ratio: 0.5
  }
}
layer {
  name: "fc7"
  type: "InnerProduct"
  bottom: "fc6"
  top: "fc7"
  param {
    lr_mult: 1
    decay_mult: 1
  }
  param {
    lr_mult: 2
    decay_mult: 0
  }
  inner_product_param {
    num_output: 4096
    weight_filler {
      type: "gaussian"
      std: 0.005
    }
    bias_filler {
      type: "constant"
      value: 0.1
    }
  }
}
layer {
  name: "relu7"
  type: "ReLU"
  bottom: "fc7"
  top: "fc7"
}
layer {
  name: "drop7"
  type: "Dropout"
  bottom: "fc7"
  top: "fc7"
  dropout_param {
    dropout_ratio: 0.5
  }
}
layer {
  name: "fc8_cloudless"
  type: "InnerProduct"
  bottom: "fc7"
  top: "fc8_cloudless"
  param {
    lr_mult: 10
    decay_mult: 1
  }
  param {
    lr_mult: 20
    decay_mult: 0
  }
  inner_product_param {
    num_output: 1
    weight_filler {
      type: "gaussian"
      std: 0.01
    }
    bias_filler {
      type: "constant"
      value: 0
    }
  }
}
layer {
  name: "accuracy"
  type: "Accuracy"
  bottom: "fc8_cloudless"
  bottom: "label"
  top: "accuracy"
  include {
    phase: TEST
  }
}
layer {
  name: "loss"
  type: "SoftmaxWithLoss"
  bottom: "fc8_cloudless"
  bottom: "label"
  top: "loss"
}
I0818 21:56:36.375766 1954198272 layer_factory.hpp:74] Creating layer data
I0818 21:56:36.375774 1954198272 net.cpp:90] Creating Layer data
I0818 21:56:36.375782 1954198272 net.cpp:368] data -> data
I0818 21:56:36.375790 1954198272 net.cpp:368] data -> label
I0818 21:56:36.375797 1954198272 net.cpp:120] Setting up data
I0818 21:56:36.375802 1954198272 data_transformer.cpp:22] Loading mean file from: data/imagenet/imagenet_mean.binaryproto
I0818 21:56:36.378850 1954198272 db.cpp:20] Opened leveldb data/leveldb/validation_leveldb
I0818 21:56:36.379037 1954198272 data_layer.cpp:52] output data size: 50,3,227,227
I0818 21:56:36.390661 1954198272 net.cpp:127] Top shape: 50 3 227 227 (7729350)
I0818 21:56:36.390681 1954198272 net.cpp:127] Top shape: 50 (50)
I0818 21:56:36.390688 1954198272 layer_factory.hpp:74] Creating layer label_data_1_split
I0818 21:56:36.390699 1954198272 net.cpp:90] Creating Layer label_data_1_split
I0818 21:56:36.390704 1954198272 net.cpp:410] label_data_1_split <- label
I0818 21:56:36.390712 1954198272 net.cpp:368] label_data_1_split -> label_data_1_split_0
I0818 21:56:36.390725 1954198272 net.cpp:368] label_data_1_split -> label_data_1_split_1
I0818 21:56:36.390732 1954198272 net.cpp:120] Setting up label_data_1_split
I0818 21:56:36.390738 1954198272 net.cpp:127] Top shape: 50 (50)
I0818 21:56:36.390741 1954198272 net.cpp:127] Top shape: 50 (50)
I0818 21:56:36.390745 1954198272 layer_factory.hpp:74] Creating layer conv1
I0818 21:56:36.390753 1954198272 net.cpp:90] Creating Layer conv1
I0818 21:56:36.390755 1954198272 net.cpp:410] conv1 <- data
I0818 21:56:36.390761 1954198272 net.cpp:368] conv1 -> conv1
I0818 21:56:36.390768 1954198272 net.cpp:120] Setting up conv1
I0818 21:56:36.391635 1954198272 net.cpp:127] Top shape: 50 96 55 55 (14520000)
I0818 21:56:36.391652 1954198272 layer_factory.hpp:74] Creating layer relu1
I0818 21:56:36.391661 1954198272 net.cpp:90] Creating Layer relu1
I0818 21:56:36.391669 1954198272 net.cpp:410] relu1 <- conv1
I0818 21:56:36.391677 1954198272 net.cpp:357] relu1 -> conv1 (in-place)
I0818 21:56:36.391687 1954198272 net.cpp:120] Setting up relu1
I0818 21:56:36.391824 1954198272 net.cpp:127] Top shape: 50 96 55 55 (14520000)
I0818 21:56:36.391839 1954198272 layer_factory.hpp:74] Creating layer norm1
I0818 21:56:36.391849 1954198272 net.cpp:90] Creating Layer norm1
I0818 21:56:36.391854 1954198272 net.cpp:410] norm1 <- conv1
I0818 21:56:36.391860 1954198272 net.cpp:368] norm1 -> norm1
I0818 21:56:36.391865 1954198272 net.cpp:120] Setting up norm1
I0818 21:56:36.391871 1954198272 net.cpp:127] Top shape: 50 96 55 55 (14520000)
I0818 21:56:36.391876 1954198272 layer_factory.hpp:74] Creating layer pool1
I0818 21:56:36.391881 1954198272 net.cpp:90] Creating Layer pool1
I0818 21:56:36.391885 1954198272 net.cpp:410] pool1 <- norm1
I0818 21:56:36.391890 1954198272 net.cpp:368] pool1 -> pool1
I0818 21:56:36.391894 1954198272 net.cpp:120] Setting up pool1
I0818 21:56:36.391940 1954198272 net.cpp:127] Top shape: 50 96 27 27 (3499200)
I0818 21:56:36.391947 1954198272 layer_factory.hpp:74] Creating layer conv2
I0818 21:56:36.391965 1954198272 net.cpp:90] Creating Layer conv2
I0818 21:56:36.391970 1954198272 net.cpp:410] conv2 <- pool1
I0818 21:56:36.391978 1954198272 net.cpp:368] conv2 -> conv2
I0818 21:56:36.391984 1954198272 net.cpp:120] Setting up conv2
I0818 21:56:36.395931 1954198272 net.cpp:127] Top shape: 50 256 27 27 (9331200)
I0818 21:56:36.395958 1954198272 layer_factory.hpp:74] Creating layer relu2
I0818 21:56:36.395966 1954198272 net.cpp:90] Creating Layer relu2
I0818 21:56:36.395969 1954198272 net.cpp:410] relu2 <- conv2
I0818 21:56:36.395977 1954198272 net.cpp:357] relu2 -> conv2 (in-place)
I0818 21:56:36.395982 1954198272 net.cpp:120] Setting up relu2
I0818 21:56:36.396024 1954198272 net.cpp:127] Top shape: 50 256 27 27 (9331200)
I0818 21:56:36.396031 1954198272 layer_factory.hpp:74] Creating layer norm2
I0818 21:56:36.396037 1954198272 net.cpp:90] Creating Layer norm2
I0818 21:56:36.396041 1954198272 net.cpp:410] norm2 <- conv2
I0818 21:56:36.396046 1954198272 net.cpp:368] norm2 -> norm2
I0818 21:56:36.396052 1954198272 net.cpp:120] Setting up norm2
I0818 21:56:36.396059 1954198272 net.cpp:127] Top shape: 50 256 27 27 (9331200)
I0818 21:56:36.396064 1954198272 layer_factory.hpp:74] Creating layer pool2
I0818 21:56:36.396069 1954198272 net.cpp:90] Creating Layer pool2
I0818 21:56:36.396072 1954198272 net.cpp:410] pool2 <- norm2
I0818 21:56:36.396076 1954198272 net.cpp:368] pool2 -> pool2
I0818 21:56:36.396081 1954198272 net.cpp:120] Setting up pool2
I0818 21:56:36.396123 1954198272 net.cpp:127] Top shape: 50 256 13 13 (2163200)
I0818 21:56:36.396128 1954198272 layer_factory.hpp:74] Creating layer conv3
I0818 21:56:36.396155 1954198272 net.cpp:90] Creating Layer conv3
I0818 21:56:36.396160 1954198272 net.cpp:410] conv3 <- pool2
I0818 21:56:36.396165 1954198272 net.cpp:368] conv3 -> conv3
I0818 21:56:36.396173 1954198272 net.cpp:120] Setting up conv3
I0818 21:56:36.407902 1954198272 net.cpp:127] Top shape: 50 384 13 13 (3244800)
I0818 21:56:36.407950 1954198272 layer_factory.hpp:74] Creating layer relu3
I0818 21:56:36.407961 1954198272 net.cpp:90] Creating Layer relu3
I0818 21:56:36.407966 1954198272 net.cpp:410] relu3 <- conv3
I0818 21:56:36.407973 1954198272 net.cpp:357] relu3 -> conv3 (in-place)
I0818 21:56:36.407979 1954198272 net.cpp:120] Setting up relu3
I0818 21:56:36.408097 1954198272 net.cpp:127] Top shape: 50 384 13 13 (3244800)
I0818 21:56:36.408105 1954198272 layer_factory.hpp:74] Creating layer conv4
I0818 21:56:36.408118 1954198272 net.cpp:90] Creating Layer conv4
I0818 21:56:36.408123 1954198272 net.cpp:410] conv4 <- conv3
I0818 21:56:36.408130 1954198272 net.cpp:368] conv4 -> conv4
I0818 21:56:36.408138 1954198272 net.cpp:120] Setting up conv4
I0818 21:56:36.417613 1954198272 net.cpp:127] Top shape: 50 384 13 13 (3244800)
I0818 21:56:36.417635 1954198272 layer_factory.hpp:74] Creating layer relu4
I0818 21:56:36.417644 1954198272 net.cpp:90] Creating Layer relu4
I0818 21:56:36.417649 1954198272 net.cpp:410] relu4 <- conv4
I0818 21:56:36.417662 1954198272 net.cpp:357] relu4 -> conv4 (in-place)
I0818 21:56:36.417670 1954198272 net.cpp:120] Setting up relu4
I0818 21:56:36.417713 1954198272 net.cpp:127] Top shape: 50 384 13 13 (3244800)
I0818 21:56:36.417719 1954198272 layer_factory.hpp:74] Creating layer conv5
I0818 21:56:36.417728 1954198272 net.cpp:90] Creating Layer conv5
I0818 21:56:36.417732 1954198272 net.cpp:410] conv5 <- conv4
I0818 21:56:36.417738 1954198272 net.cpp:368] conv5 -> conv5
I0818 21:56:36.417745 1954198272 net.cpp:120] Setting up conv5
I0818 21:56:36.423395 1954198272 net.cpp:127] Top shape: 50 256 13 13 (2163200)
I0818 21:56:36.423424 1954198272 layer_factory.hpp:74] Creating layer relu5
I0818 21:56:36.423431 1954198272 net.cpp:90] Creating Layer relu5
I0818 21:56:36.423435 1954198272 net.cpp:410] relu5 <- conv5
I0818 21:56:36.423441 1954198272 net.cpp:357] relu5 -> conv5 (in-place)
I0818 21:56:36.423446 1954198272 net.cpp:120] Setting up relu5
I0818 21:56:36.423488 1954198272 net.cpp:127] Top shape: 50 256 13 13 (2163200)
I0818 21:56:36.423494 1954198272 layer_factory.hpp:74] Creating layer pool5
I0818 21:56:36.423503 1954198272 net.cpp:90] Creating Layer pool5
I0818 21:56:36.423507 1954198272 net.cpp:410] pool5 <- conv5
I0818 21:56:36.423512 1954198272 net.cpp:368] pool5 -> pool5
I0818 21:56:36.423518 1954198272 net.cpp:120] Setting up pool5
I0818 21:56:36.423616 1954198272 net.cpp:127] Top shape: 50 256 6 6 (460800)
I0818 21:56:36.423625 1954198272 layer_factory.hpp:74] Creating layer fc6
I0818 21:56:36.423638 1954198272 net.cpp:90] Creating Layer fc6
I0818 21:56:36.423642 1954198272 net.cpp:410] fc6 <- pool5
I0818 21:56:36.423647 1954198272 net.cpp:368] fc6 -> fc6
I0818 21:56:36.423655 1954198272 net.cpp:120] Setting up fc6
I0818 21:56:36.899488 1954198272 net.cpp:127] Top shape: 50 4096 (204800)
I0818 21:56:36.899528 1954198272 layer_factory.hpp:74] Creating layer relu6
I0818 21:56:36.899538 1954198272 net.cpp:90] Creating Layer relu6
I0818 21:56:36.899543 1954198272 net.cpp:410] relu6 <- fc6
I0818 21:56:36.899549 1954198272 net.cpp:357] relu6 -> fc6 (in-place)
I0818 21:56:36.899559 1954198272 net.cpp:120] Setting up relu6
I0818 21:56:36.899643 1954198272 net.cpp:127] Top shape: 50 4096 (204800)
I0818 21:56:36.899649 1954198272 layer_factory.hpp:74] Creating layer drop6
I0818 21:56:36.899657 1954198272 net.cpp:90] Creating Layer drop6
I0818 21:56:36.899659 1954198272 net.cpp:410] drop6 <- fc6
I0818 21:56:36.899664 1954198272 net.cpp:357] drop6 -> fc6 (in-place)
I0818 21:56:36.899672 1954198272 net.cpp:120] Setting up drop6
I0818 21:56:36.899675 1954198272 net.cpp:127] Top shape: 50 4096 (204800)
I0818 21:56:36.899680 1954198272 layer_factory.hpp:74] Creating layer fc7
I0818 21:56:36.899720 1954198272 net.cpp:90] Creating Layer fc7
I0818 21:56:36.899724 1954198272 net.cpp:410] fc7 <- fc6
I0818 21:56:36.899730 1954198272 net.cpp:368] fc7 -> fc7
I0818 21:56:36.899740 1954198272 net.cpp:120] Setting up fc7
I0818 21:56:37.115197 1954198272 net.cpp:127] Top shape: 50 4096 (204800)
I0818 21:56:37.115224 1954198272 layer_factory.hpp:74] Creating layer relu7
I0818 21:56:37.115234 1954198272 net.cpp:90] Creating Layer relu7
I0818 21:56:37.115239 1954198272 net.cpp:410] relu7 <- fc7
I0818 21:56:37.115244 1954198272 net.cpp:357] relu7 -> fc7 (in-place)
I0818 21:56:37.115252 1954198272 net.cpp:120] Setting up relu7
I0818 21:56:37.115344 1954198272 net.cpp:127] Top shape: 50 4096 (204800)
I0818 21:56:37.115352 1954198272 layer_factory.hpp:74] Creating layer drop7
I0818 21:56:37.115360 1954198272 net.cpp:90] Creating Layer drop7
I0818 21:56:37.115363 1954198272 net.cpp:410] drop7 <- fc7
I0818 21:56:37.115368 1954198272 net.cpp:357] drop7 -> fc7 (in-place)
I0818 21:56:37.115375 1954198272 net.cpp:120] Setting up drop7
I0818 21:56:37.115380 1954198272 net.cpp:127] Top shape: 50 4096 (204800)
I0818 21:56:37.115383 1954198272 layer_factory.hpp:74] Creating layer fc8_cloudless
I0818 21:56:37.115391 1954198272 net.cpp:90] Creating Layer fc8_cloudless
I0818 21:56:37.115394 1954198272 net.cpp:410] fc8_cloudless <- fc7
I0818 21:56:37.115399 1954198272 net.cpp:368] fc8_cloudless -> fc8_cloudless
I0818 21:56:37.115408 1954198272 net.cpp:120] Setting up fc8_cloudless
I0818 21:56:37.115468 1954198272 net.cpp:127] Top shape: 50 1 (50)
I0818 21:56:37.115509 1954198272 layer_factory.hpp:74] Creating layer fc8_cloudless_fc8_cloudless_0_split
I0818 21:56:37.115520 1954198272 net.cpp:90] Creating Layer fc8_cloudless_fc8_cloudless_0_split
I0818 21:56:37.115528 1954198272 net.cpp:410] fc8_cloudless_fc8_cloudless_0_split <- fc8_cloudless
I0818 21:56:37.115536 1954198272 net.cpp:368] fc8_cloudless_fc8_cloudless_0_split -> fc8_cloudless_fc8_cloudless_0_split_0
I0818 21:56:37.115545 1954198272 net.cpp:368] fc8_cloudless_fc8_cloudless_0_split -> fc8_cloudless_fc8_cloudless_0_split_1
I0818 21:56:37.115551 1954198272 net.cpp:120] Setting up fc8_cloudless_fc8_cloudless_0_split
I0818 21:56:37.115556 1954198272 net.cpp:127] Top shape: 50 1 (50)
I0818 21:56:37.115561 1954198272 net.cpp:127] Top shape: 50 1 (50)
I0818 21:56:37.115566 1954198272 layer_factory.hpp:74] Creating layer accuracy
I0818 21:56:37.115577 1954198272 net.cpp:90] Creating Layer accuracy
I0818 21:56:37.115587 1954198272 net.cpp:410] accuracy <- fc8_cloudless_fc8_cloudless_0_split_0
I0818 21:56:37.115592 1954198272 net.cpp:410] accuracy <- label_data_1_split_0
I0818 21:56:37.115598 1954198272 net.cpp:368] accuracy -> accuracy
I0818 21:56:37.115604 1954198272 net.cpp:120] Setting up accuracy
…
